tactile_model/model/best_model.pt (torch, 164495 bytes, 8 tensors)

fc1.weight f4 [256, 3]
0	0xbebc8723	-0.3682185
1	0xbefa6f4a	-0.48913032
2	0xbbc85d7e	-0.0061146608
3	0xbe660beb	-0.22465484
4	0x3ed758d8	0.4205997
5	0xb9a66cc6	-0.0003174303
6	0x3e5dd318	0.21662557
7	0x3f076863	0.52893656
8	0xbf0a6d72	-0.5407325
9	0x3eb489a0	0.3526125
10	0x3de50736	0.11183016
11	0xbd49d156	-0.049271904
12	0xbf102697	-0.56308883
13	0x3ec9cdc6	0.39414805
14	0x3de74001	0.11291505
15	0x3d3676bd	0.04454683
16	0x3e7610dc	0.24029869
17	0xbe1d07f3	-0.15335064
18	0x3e9e2d4d	0.30893937
19	0xbd55c319	-0.052188013
20	0xbea8bc8f	-0.3295636
21	0xbd162a42	-0.036661394
22	0x3e3cb9ae	0.18430206
23	0x3e437954	0.19089252
24	0x3e6a4291	0.22876956
25	0xbf0e428c	-0.5557029
26	0xbedb28ae	-0.42804474
27	0x3c0917f9	0.008367532
28	0x3ebdda03	0.37080392
29	0x3eec73e0	0.46182156
30	0xbf148f13	-0.58030814
31	0xbf01fca9	-0.50776154
32	0x3e12ce0d	0.14336415
33	0xbf13252d	-0.574786
34	0xbe9c277a	-0.30498868
35	0x3d7912b8	0.060808867
36	0x3ea516a5	0.3224384
37	0xbec64d29	-0.38730744
38	0xbec7deb2	-0.3903709
39	0x3dceedda	0.1010396
40	0x3ee9e27e	0.45680612
41	0x3ec4e6ff	0.38457486
42	0xbec5ea61	-0.3865538
43	0x3e369c3c	0.17833036
44	0xbc4841f1	-0.012222753
45	0x3ed321de	0.41236776
46	0xbe83e82d	-0.25763074
47	0xbf0ea3a6	-0.5571846
48	0x3db8c84a	0.09022577
49	0xbeab8fc8	-0.33508134
50	0xbd598cc7	-0.05311277
51	0xbe8be5e5	-0.27323833
52	0xbed2727f	-0.4110298
53	0xbed28e26	-0.41124076
54	0xbec01def	-0.37522838
55	0xbf16daa6	-0.5892738
56	0x3db2b95e	0.08726762
57	0x3e9ec2a1	0.31007865
58	0x3e13fb08	0.1445123
59	0xbe141655	-0.14461644
60	0x3eaa8014	0.3330084
61	0x3d0f69b1	0.035012905
62	0x3ef12538	0.47098708
63	0x3ef6e649	0.4822257
64	0x3f020a49	0.50796944
65	0x3f14acee	0.5807637
66	0xbe298e43	-0.16558175
67	0x3d83aba3	0.064292215
68	0x3d82e07b	0.063904725
69	0x3f1b2906	0.6060947
70	0x3f15ffbb	0.5859334
71	0xbe1299a6	-0.14316425
72	0x3f102c40	0.5631752
73	0x3e797aab	0.243632
74	0x3e48e381	0.19618036
75	0xbe92ea88	-0.28694558
76	0xbeda7895	-0.42670122
77	0x3ec4f8d2	0.38471085
78	0x3cd95e26	0.026534151
79	0xbdd09341	-0.101843365
80	0x3eb78ba0	0.35848713
81	0x3dd0bd3a	0.10192342
82	0x3b184a77	0.0023237744
83	0x3f014df3	0.50509566
84	0x3e45f1a1	0.19330455
85	0x3e1d26ce	0.15346834
86	0xbeef1d71	-0.4670215
87	0xbf1f2b06	-0.62175024
88	0xbeebd626	-0.4606182
89	0x3d1d4c4f	0.03840285
90	0xbf15d82b	-0.5853297
91	0x3f1a4765	0.6026519
92	0x3e789739	0.24276437
93	0xbe92be13	-0.2866064
94	0x3d12a0b9	0.03579781
95	0xbe507fc4	-0.20361239
96	0x3ef11b0b	0.47090945
97	0xbe92f627	-0.28703424
98	0xbec1a027	-0.378175
99	0xbf1bd78f	-0.6087579
100	0xbea5e4b5	-0.32401052
101	0xbd4262cd	-0.047457505
102	0xbed7ec8e	-0.42172664
103	0x3c1e8a0e	0.0096764695
104	0xbefdaceb	-0.49545988
105	0xbf0b19f9	-0.54336506
106	0x3e8c80d9	0.27442053
107	0x3f090720	0.53526497
108	0x3f02ff32	0.5117065
109	0xbe37adea	-0.17937437
110	0x3f003f88	0.5009694
111	0x3eb4bf66	0.35302275
112	0xbe4b8c58	-0.19877756
113	0xbd998c6c	-0.074974865
114	0xbef8f7bc	-0.48626506
115	0xbeb91bac	-0.36153924
116	0x3edcdce0	0.43137264
117	0xbba527d7	-0.0050401497
118	0x3ef65c63	0.4811736
119	0xbf09ea83	-0.5387346
120	0xbda7745f	-0.08176493
121	0xbeff4acd	-0.49861756
122	0x3eca839f	0.39553544
123	0xbf07e377	-0.5308146
124	0xbecfcd9e	-0.4058656
125	0xbf09ff9f	-0.5390567
126	0xbdd792cd	-0.10526047
127	0x3e7f3694	0.24923164
128	0x3d0bfac3	0.034174692
129	0x3e80755b	0.25089535
130	0xbf00170a	-0.50035155
131	0xbeb61de3	-0.35569677
132	0xbe303292	-0.17206791
133	0x3efa5b3a	0.48897725
134	0xbce7a0ca	-0.028274912
135	0x3f00c01e	0.5029315
136	0xbe9d111d	-0.3067712
137	0xbc50e134	-0.012749005
138	0xbe86c95f	-0.2632551
139	0xbd550d06	-0.052014373
140	0x3f085015	0.53247195
141	0x3898ffd2	7.295575e-05
142	0x3e90578d	0.28191796
143	0x3e129fc9	0.14318766
144	0x3e62d73a	0.22152415
145	0x3eb6706d	0.3563265
146	0xbebaa8c2	-0.36456877
147	0x3efefad5	0.49800745
148	0xbef1d0f8	-0.47229743
149	0x3dd1bfe5	0.10241679
150	0x3f0609d6	0.5235876
151	0xbef71ed7	-0.48265716
152	0xbcb35fa8	-0.021896198
153	0xbece1df6	-0.40257233
154	0x3da7683c	0.08174178
155	0xbe12ac3e	-0.14323518
156	0xbf03bcdb	-0.51460046
157	0xbeab18ec	-0.3341745
158	0x3d7ab05a	0.06120334
159	0x3e0121a4	0.12610489
160	0xbedbec08	-0.42953515
161	0x3c258ef3	0.0101048825
162	0x3efb5b10	0.49092913
163	0xbed6f26b	-0.41981825
164	0x3d1e9075	0.038711984
165	0xbef87199	-0.48524168
166	0x3e923765	0.28557888
167	0xbf0061d7	-0.5014929
168	0xbe3c4682	-0.18386272
169	0x3e2f8a99	0.17142715
170	0x3e2eb497	0.17061077
171	0xbef00c4b	-0.4688438
172	0x3ebb0972	0.36530644
173	0x3ee06b4f	0.4383187
174	0xbf043318	-0.5164046
175	0x3ea7e320	0.3279047
176	0x3e3f8ec1	0.187068
177	0x3ec0746e	0.3758883
178	0x3f043227	0.51639026
179	0x3e92027e	0.28517526
180	0xbee20a5f	-0.44148538
181	0xbeca524e	-0.39515918
182	0xbef619cf	-0.48066565
183	0x3ec73771	0.38909486
184	0x3f0cb88d	0.549691
185	0xbe4665d1	-0.19374777
186	0xbd54b9bf	-0.051934954
187	0xbee31e57	-0.44359085
188	0xbe5c43f5	-0.21510299
189	0x3e078ecf	0.13238071
190	0x3e9bca6d	0.30427876
191	0x3d6cd900	0.057824135
192	0x3e913509	0.28360775
193	0x3e9e8188	0.309582
194	0xbef4812f	-0.4775481
195	0xbe3c0ebf	-0.18365
196	0x3e38fdd6	0.1806558
197	0xbe8da7b1	-0.27667
198	0xbec80ea4	-0.3907367
199	0xbf13d22a	-0.5774256
200	0x3e033928	0.12814772
201	0x3e60afb1	0.21942021
202	0x3edf6a02	0.43635565
203	0x3e8bc748	0.27300477
204	0x3e92f454	0.28702033
205	0xbe19f75b	-0.15035765
206	0xbe9106c0	-0.28325462
207	0x3ef36398	0.47536922
208	0xbeb81643	-0.35954484
209	0xbcffbaab	-0.03121694
210	0x3e8b3e5f	0.27196023
211	0xbf0b354d	-0.54378206
212	0xbf0a55b4	-0.5403702
213	0x3eca0e2c	0.39463937
214	0x3da9fefd	0.08300588
215	0xbee537e3	-0.447692
216	0x3f0ad304	0.54228234
217	0x3d3fde26	0.046842717
218	0x3ea743af	0.32668826
219	0x3ece37b5	0.40276876
220	0x3df79375	0.12088672
221	0x3e9d9356	0.3077647
222	0xbf06197e	-0.5238265
223	0xbf04617c	-0.5171125
224	0x3f16f884	0.58972955
225	0xbf1fe75e	-0.62462413
226	0xbef1202d	-0.4709486
227	0x3ec6b2e8	0.3880837
228	0x3e3b3afe	0.18284222
229	0xbe9d2149	-0.30689457
230	0x3da7d7f6	0.08195488
231	0x3e4bed95	0.19914849
232	0x3ea54600	0.32279968
233	0x3f037af9	0.51359516
234	0x3e525a31	0.20542218
235	0x3f01c4e6	0.5069107
236	0x3e958a81	0.29207233
237	0xbe93fe55	-0.28904977
238	0xbec25454	-0.37954962
239	0x3e89b767	0.26897737
240	0x3f09ef4e	0.53880775
241	0x3cd3d33f	0.025857566
242	0xbe5b1042	-0.2139292
243	0xbe6b200d	-0.22961445
244	0xbc56d8ac	-0.013113182
245	0xbca3d4d8	-0.019998953
246	0x3cd44229	0.025910454
247	0x3eed8336	0.46389169
248	0x3ef3e014	0.47631896
249	0xbf13de6d	-0.5776127
250	0xbf0c7ed3	-0.5488102
251	0xbed1426d	-0.4087099
252	0xbf00a697	-0.50254196
253	0xbeb44db6	-0.3521554
254	0xbf0eaf32	-0.55736077
255	0x3ee01041	0.437624

fc1.bias f4 [256]
0	0xbe5ffc4c	-0.21873587
1	0x3aed6f74	0.0018114881
2	0xbec2504b	-0.37951884
3	0x3e25c73d	0.16189285
4	0xbdc0f71a	-0.09422131
5	0xbea4fe76	-0.32225388
6	0xbda50943	-0.08058407
7	0x3f1f6086	0.6225666
8	0xbc4888c2	-0.012239637
9	0x3eb68027	0.35644647
10	0x3d99ed1b	0.075159274
11	0x3ec11ed3	0.3771883
12	0xbefd660d	-0.4949192
13	0xbe87cc1d	-0.26522914
14	0xbeef6e9c	-0.46764076
15	0x3df1e6b6	0.11811583
16	0xbefd9a10	-0.49531603
17	0xbf1970a1	-0.59937483
18	0x3e835f08	0.2565844
19	0xbe0bf4c2	-0.13667586
20	0xbe8484f0	-0.25882673
21	0x3e8bff18	0.2734306
22	0xbe1bdada	-0.15220204
23	0xbeaa0509	-0.33206967
24	0xbf07f063	-0.53101176
25	0xbef46b94	-0.47738326
26	0xbe4b76fb	-0.19869606
27	0x3f0ca84c	0.549443
28	0xbe9ea3b2	-0.30984265
29	0xbf0ac0b9	-0.5420032
30	0xbe58fe08	-0.21190655
31	0xbdd014a1	-0.10160185
32	0x3f24ea8e	0.644204
33	0x3cac811f	0.021057663
34	0x3eafabea	0.34310848
35	0xbe194dd6	-0.14971098
36	0xbe48872e	-0.19582817
37	0xbf145394	-0.5794003
38	0x3f0c9698	0.5491729
39	0xbd8923a7	-0.06696253
40	0xbe886f33	-0.26647338
41	0x3e2ce6bd	0.16884895
42	0x3ed47a06	0.41499346
43	0x3cc95b82	0.024579767
44	0x3f014e0c	0.50509715
45	0x3e2862d3	0.16443948
46	0x3d6a88ac	0.057259247
47	0xbd2821f8	-0.04104802
48	0xbd5cd914	-0.05391796
49	0xbe1c4e6d	-0.15264292
50	0xbd68d143	-0.056840193
51	0x3e13772f	0.14400934
52	0xbed31c44	-0.41232502
53	0xbe044d15	-0.1292003
54	0x3e0f289e	0.13980338
55	0x3d70bda4	0.058774605
56	0xbe809219	-0.25111464
57	0x3eb240c7	0.34815046
58	0xbe7875f1	-0.24263741
59	0xbe02b6ae	-0.12765
60	0x3ca77ea2	0.020446125
61	0x3edf81d5	0.4365374
62	0x3e641413	0.22273283
63	0xbeda9291	-0.42689946
64	0x3f0c644c	0.5484054
65	0xbe15fa8e	-0.1464636
66	0x3cd05f5d	0.025436098
67	0x3f01420a	0.5049139
68	0xbe5fb899	-0.21847762
69	0x3f19cc14	0.60077024
70	0xbefe2f48	-0.49645448
71	0xbe4556f6	-0.19271454
72	0xbd8d8ad3	-0.06911244
73	0xbedfd63e	-0.4371814
74	0x3e0db093	0.13836889
75	0x3ec70180	0.38868332
76	0x3f1c7a67	0.6112427
77	0xbccd1b77	-0.02503751
78	0x3eef2ba6	0.4671299
79	0xbeea8a51	-0.45808652
80	0x3e38f0ef	0.18060659
81	0xbeba3d75	-0.36375013
82	0x3dda6593	0.10663905
83	0x3d7f91cc	0.062394902
84	0x3e48741a	0.19575539
85	0x3f0b1047	0.5432171
86	0xbe182374	-0.14857274
87	0xbdebc85e	-0.115128264
88	0x3e639d1d	0.22227903
89	0xbe9fa8c5	-0.31183448
90	0xbeb11408	-0.34585595
91	0xbe76aa08	-0.240883
92	0xbed1c9d7	-0.40974304
93	0xbe2a69b1	-0.1664188
94	0xbeff742a	-0.49893314
95	0xbe81e549	-0.25370243
96	0xbebb50f4	-0.365852
97	0x3f0c2a89	0.54752403
98	0x3da21c8b	0.079156004
99	0x3d070845	0.03296687
100	0x3f1ba65d	0.60800725
101	0x3e2beb93	0.16789083
102	0xbe1e17ce	-0.15438768
103	0xbf2fa4d7	-0.686109
104	0xbe79d220	-0.24396563
105	0xbedd68ef	-0.4324412
106	0x3eb5a041	0.35473827
107	0xbf0302af	-0.5117597
108	0xbe936eb4	-0.28795397
109	0x3db462e2	0.08807923
110	0x3e962a1f	0.2932901
111	0xbf08fd26	-0.53511274
112	0x3ef5efb6	0.48034447
113	0xbea649cc	-0.32478178
114	0xbef2b4db	-0.47403607
115	0x3e5e2843	0.21695046
116	0xbf050dab	-0.5197398
117	0x3f116337	0.56792015
118	0x3ee77595	0.45206895
119	0xbdfa63c7	-0.12226062
120	0x3e552c55	0.20817693
121	0xbe5c2118	-0.21497
122	0x3e8a7d41	0.27048686
123	0xbee60938	-0.44928908
124	0xbd2133b1	-0.039355937
125	0xbc5c810f	-0.013458504
126	0x3efc76d8	0.4930942
127	0x3ee6a25a	0.4504574
128	0x3e992aaf	0.29915377
129	0x3e9a80ae	0.301763
130	0x3edfe0d5	0.4372622
131	0x3e133612	0.14376095
132	0x3d20eac5	0.039286394
133	0xbf1da2ca	-0.6157652
134	0xbf2751d6	-0.65359247
135	0x3f0ee7cf	0.5582246
136	0xbef7351d	-0.4828271
137	0x3ec24548	0.37943482
138	0x3f194076	0.59863985
139	0x3e083171	0.1330011
140	0x3ec9fc3b	0.3945025
141	0xbe0ac4b1	-0.13551594
142	0xbe53fbdc	-0.20701545
143	0x3dc035d2	0.093852654
144	0x3f0a91e8	0.54128885
145	0x3eb75077	0.35803577
146	0x3e8d88cc	0.2764343
147	0x3ede71ae	0.43446106
148	0xbebfeac3	-0.37483796
149	0x3f06b9ac	0.5262706
150	0x3e4069ef	0.1879041
151	0xbe3dfe72	-0.18554094
152	0xbeecfa3c	-0.46284664
153	0x3f124a6d	0.57144815
154	0x3f0e74ff	0.5564727
155	0x3e3af3ff	0.1825714
156	0xbec0f2ae	-0.3768515
157	0xbcc1a355	-0.023637453
158	0x3eee00f9	0.46485117
159	0x3ec71162	0.3888045
160	0x3efc3f71	0.49267152
161	0x3caac4a3	0.020845717
162	0xbeb73945	-0.3578588
163	0xbe85456b	-0.26029524
164	0xbd49f904	-0.049309745
165	0xbea81aa6	-0.3283283
166	0xbed6655c	-0.41874206
167	0x3ef96438	0.48709273
168	0x3f09c3d9	0.53814465
169	0x3cb2162c	0.021739088
170	0x3f008831	0.5020781
171	0xbdf47a1b	-0.11937352
172	0xbdf08c12	-0.11745466
173	0xbef05305	-0.4693834
174	0xbe02eca0	-0.12785578
175	0xbd91e945	-0.07124571
176	0x3e05f774	0.13082677
177	0x3e7a7144	0.2445727
178	0x3ea4590f	0.32099196
179	0xbe6289dc	-0.22122902
180	0xbcb3868b	-0.021914741
181	0xbe3741dd	-0.17896219
182	0xbf008ac4	-0.5021174
183	0xbecbacd5	-0.39780298
184	0xbdbe9645	-0.093060054
185	0x3eabf74e	0.33587116
186	0xbf0616de	-0.5237864
187	0xbd7fbe66	-0.062437437
188	0xbe9434db	-0.28946576
189	0xbeeca51e	-0.46219724
190	0xbec2119b	-0.37904057
191	0x3e902955	0.28156534
192	0xbdda395b	-0.10655471
193	0x3ee2210c	0.44165838
194	0xbe95ce45	-0.29258934
195	0x3f094892	0.5362636
196	0xbee781d7	-0.45216247
197	0x3f0495dc	0.5179117
198	0x3e362155	0.17786153
199	0x3e1e692e	0.1546981
200	0xbd8c158d	-0.06840048
201	0x3eb00b00	0.34383392
202	0x3d19c84b	0.03754453
203	0xbe745640	-0.23861027
204	0x3d15cfaf	0.036575016
205	0xbe9ffadf	-0.31246087
206	0xbe4e22dd	-0.20130487
207	0xbe90bcaa	-0.2826894
208	0xbeae1641	-0.34001353
209	0x3f0adf54	0.5424702
210	0xbedf3859	-0.43597677
211	0xbf1f5e0d	-0.62252885
212	0x3e322b9a	0.17399445
213	0x3eee1516	0.46500462
214	0xbf024958	-0.50893164
215	0xbee0033c	-0.43752468
216	0xbed9ce25	-0.42540088
217	0x3c530646	0.012879914
218	0x3ed50d43	0.4161168
219	0xbd274da1	-0.040845517
220	0x3cc8e8bc	0.024525039
221	0x3eb8ab6c	0.36068285
222	0xbf1c6f9f	-0.6110782
223	0x3e47a2e1	0.19495727
224	0x3f01b57a	0.50667536
225	0xbf1b9fc9	-0.6079069
226	0xbeb9429f	-0.3618364
227	0xbe25a5a3	-0.16176467
228	0x3efa0381	0.48830798
229	0xbf098648	-0.5372052
230	0xbf037d23	-0.5136282
231	0x3f1d9861	0.61560637
232	0x3ed11b95	0.40841356
233	0xbebf688f	-0.3738446
234	0x3ea3c84a	0.31988746
235	0x3cdfa426	0.027299952
236	0xbbfa24be	-0.0076337745
237	0x3ebe0fca	0.3712142
238	0xbe29af87	-0.16570865
239	0x3ee55ede	0.4479894
240	0xbeaf8ff9	-0.3428953
241	0xbd58aae5	-0.052897353
242	0xbeee84b5	-0.46585622
243	0x3f1e9bf9	0.61956745
244	0xbe834358	-0.25637317
245	0x3ec92550	0.3928628
246	0xbf1009bb	-0.5626485
247	0x3efa7470	0.4891696
248	0xbb03ac8f	-0.0020091867
249	0xbeeae671	-0.45878938
250	0x3ef98837	0.48736736
251	0xbe853a2a	-0.26020938
252	0x3eadcad5	0.3394381
253	0x3ecaf9d3	0.39643726
254	0x3f079a08	0.5296941
255	0xbe070d99	-0.13188781

conv1.weight f4 [32, 16, 3, 3]
0	0x3e1953a0	0.14973307
1	0xbd0020df	-0.03128135
2	0x3d9ef7a4	0.077620775
3	0xbcbc73be	-0.023004409
4	0xbd342fca	-0.043990888
5	0xbd8491b6	-0.06473105
6	0x3d8bb369	0.06821329
7	0x3bf9670c	0.007611161
8	0x3d0a2497	0.0337263
9	0xbdf52a5d	-0.11970971
10	0x3da1fe0e	0.07909785
11	0xbd8d84cc	-0.069100946
12	0x3d24e7bb	0.040260058
13	0xbcae4d8f	-0.021277217
14	0xbdd3d0e2	-0.103425756
15	0x3abcf3a9	0.0014415878
16	0xbbce325f	-0.006292626
17	0xbdd35dda	-0.10320635
18	0x3d660122	0.056153424
19	0x3c7ead55	0.015544255
20	0x3dad95b6	0.08475821
21	0xbc2a72e7	-0.010403371
22	0xbce7939e	-0.028268632
23	0xbc786690	-0.015161172
24	0xbd6c4804	-0.057685867
25	0x3cd79e44	0.026320584
26	0xbddd6f33	-0.10812225
27	0xbd8720a3	-0.06598022
28	0xbdfb63c7	-0.122748904
29	0xbcfd78f7	-0.03094147
30	0xbdb4cb1d	-0.08827803
31	0x3d33dbde	0.043910854
32	0xbe18f591	-0.14937426
33	0x3e0c826b	0.13721626
34	0x3d0c35fd	0.034231175
35	0xbc150b17	-0.009096882
36	0x3ba4a261	0.00502424
37	0x3da8ba9b	0.08238717
38	0x3de43e73	0.11144724
39	0x3a254949	0.0006305171
40	0xbd825950	-0.06364691
41	0xbd1f3b16	-0.038874708
42	0x3d89fcd5	0.06737677
43	0xbe0b436a	-0.13599935
44	0x3d87a4bf	0.0662322
45	0xbda6273c	-0.08112952
46	0x3dd09c41	0.10186053
47	0x3d91a1e2	0.07110955
48	0xbb91bacd	-0.004447317
49	0x3d76f6e9	0.060294066
50	0x3b4b35df	0.0031007451
51	0x3d93cbf1	0.07216633
52	0xbddca1a4	-0.10773018
53	0x3d5495fd	0.051900852
54	0xbca9cfd6	-0.020728987
55	0x3cb341be	0.021881934
56	0x3daedc3e	0.085381016
57	0xbd1ad963	-0.037804972
58	0xbd6e7834	-0.058220103
59	0xbcb56878	-0.022144541
60	0x3d4d2bac	0.050090477
61	0xbdea75ff	-0.11448287
62	0x3d92436b	0.07141765
63	0xbd03ac10	-0.032146513
64	0xbdc088d7	-0.094011
65	0xbd82e1c2	-0.06390716
66	0x3dd82ca5	0.1055539
67	0xbe0ec43c	-0.13942045
68	0xbd0ff0e8	-0.035141855
69	0x3d9d410c	0.07678422
70	0xbd56f0c1	-0.052475695
71	0xbdb94bc9	-0.09047658
72	0x3e01f92a	0.12692705
73	0x3dbd748e	0.09250747
74	0xbd26889a	-0.040657617
75	0x3ce4afa7	0.027915789
76	0xbd2bfacc	-0.041987225
77	0x3c84b852	0.016201172
78	0xbdc44f89	-0.095854826
79	0xbd5a5363	-0.05330218
80	0xbde9be65	-0.11413268
81	0xbd268266	-0.0406517
82	0xbd905c3d	-0.07048843
83	0x3db51c51	0.088432916
84	0x3d0ad6de	0.03389632
85	0xbcdb2955	-0.026753107
86	0xbdd7a1bb	-0.105288945
87	0x3cb4db55	0.022077242
88	0xbe078af4	-0.132366
89	0xbc9d4e26	-0.019202303
90	0xbdc222d1	-0.09479297
91	0x3df134f2	0.11777677
92	0xbdab3394	-0.08359447
93	0xbd2c5c85	-0.04208042
94	0x3d8898a1	0.06669737
95	0x3bcf682e	0.006329558
96	0xbd3e844e	-0.046512894
97	0x3d86f96b	0.065905415
98	0xbd8546a0	-0.06507611
99	0x3d96d27b	0.07364365
100	0x3bc0e30b	0.0058864406
101	0x3babc3fe	0.00524187
102	0xbce47b66	-0.027890872
103	0xbd6a4bed	-0.057201315
104	0xbdace0c7	-0.084413104
105	0xbd82be06	-0.063839
106	0xbc8fe58d	-0.017565513
107	0xbdbab8d3	-0.09117284
108	0xbe276a15	-0.16349061
109	0xbd051e26	-0.032499455
110	0x3d88496f	0.06654631
111	0x3a9f2dde	0.0012144407
112	0x3d13e1e2	0.03610409
113	0xbc6ba4c0	-0.014382541
114	0x3d5a3b3e	0.053279154
115	0x3d74b061	0.05973852
116	0x3d858ed9	0.06521387
117	0xbd3241c0	-0.043519735
118	0xbc90fa10	-0.017697364
119	0x3bb054d9	0.0053812084
120	0xbd3c35bc	-0.045949683
121	0x3d83870b	0.06422242
122	0x3d17d1b6	0.03706523
123	0xbd746f84	-0.059676662
124	0x3d6e8064	0.05822791
125	0xbcb321f1	-0.02186677
126	0x3c47e461	0.012200446
127	0x3d2b61f4	0.041841462
128	0x3ad041c0	0.0015888736
129	0x3daf89cc	0.085712045
130	0xbd9b8265	-0.0759323
131	0xbd131391	-0.03590733
132	0xbd918ef5	-0.07107345
133	0x3d61ec05	0.055156726
134	0xbda70fec	-0.08157334
135	0xbce76366	-0.028245639
136	0x3e1c9ea4	0.15294892
137	0xbd891a56	-0.06694476
138	0xba13d6af	-0.00056395953
139	0x3aad4faf	0.00132226
140	0x3ba80546	0.005127582
141	0x3dc69e9c	0.09698221
142	0x3c7c492d	0.015398306
143	0x3de0bb04	0.109731704
144	0xbd733be8	-0.059383303
145	0x3d98a9d9	0.07454271
146	0xbdd58c7e	-0.104271874
147	0xbca3379c	-0.019923978
148	0xbda13098	-0.07870597
149	0xbd712863	-0.058876406
150	0xbdcbd156	-0.09952037
151	0x3d987a2f	0.0744518
152	0x3ca060f8	0.019577488
153	0xbd520641	-0.051275495
154	0xbd0195bb	-0.031636935
155	0xbca60893	-0.02026776
156	0x3da29ab8	0.079396665
157	0x3d9ca160	0.07647967
158	0x3d9ad9dc	0.07561085
159	0xbd3911e9	-0.045183096
160	0x3d817ca5	0.06322602
161	0x3d911b81	0.07085324
162	0x3da0ad49	0.078455515
163	0xbd137197	-0.035997
164	0x3dab8a77	0.083760194
165	0x3de9e34c	0.114203066
166	0xbdaf7017	-0.08566301
167	0x3d11ee65	0.03562774
168	0x3bbfa2ce	0.0058482653
169	0xbe056560	-0.13026953
170	0xbc9e5036	-0.019325357
171	0xbd655dda	-0.055997707
172	0xbd87f649	-0.06638772
173	0x3d67a11b	0.056550127
174	0xbdb669cb	-0.08906897
175	0xbd386402	-0.04501725
176	0x3d4b88e7	0.049691107
177	0x3cf6117f	0.03003764
178	0xbadbfdb8	-0.0016783988
179	0xbded427c	-0.115849465
180	0x3dd44087	0.1036387
181	0xbdbe0b64	-0.09279516
182	0xbda81487	-0.0820704
183	0xbc3e4f66	-0.01161561
184	0x3b49232e	0.0030691135
185	0xbdc2dc92	-0.09514727
186	0x3dced3a9	0.10098965
187	0x3bcc2f05	0.006231191
188	0xbe02932d	-0.12751456
189	0x3db5e9dc	0.08882496
190	0xbccba2e0	-0.024857938
191	0x3c7fa2f2	0.015602814
192	0xbd5a0b20	-0.053233266
193	0xbd263023	-0.04057325
194	0xbdc5fc9b	-0.09667321
195	0x3c9dfdb6	0.019286018
196	0xbcf80fd3	-0.030280983
197	0x3d78ddba	0.06075833
198	0xbe2e694d	-0.17032357
199	0xbcf1ce76	-0.029517394
200	0xbd230ca9	-0.039806996
201	0x3d968db2	0.07351245
202	0xbd951c1f	-0.07280754
203	0x3d12e4a8	0.035862595
204	0x3b329dcc	0.0027254699
205	0x3d5f0606	0.054449104
206	0x3d8ade96	0.06780736
207	0x3d9e5ad3	0.07732167
208	0xbd8b7cb2	-0.06810893
209	0xbdecf058	-0.115692794
210	0xbd2c8b38	-0.042124957
211	0x3d5d2fef	0.05400079
212	0xbdc0dbc8	-0.0941692
213	0x3da95748	0.08268601
214	0x3d4652fa	0.048418976
215	0x3d39c732	0.045355983
216	0x3d3744fe	0.04474353
217	0xbcbfb83e	-0.023403283
218	0x3d1243a7	0.03570905
219	0xbd1d68c5	-0.038429994
220	0x3ddb3811	0.10704053
221	0x3d00750b	0.03136162
222	0x3cf25654	0.02958218
223	0x3db5aca3	0.088708185
224	0x3cc5172c	0.0240589
225	0xbc28c1fe	-0.010300158
226	0x3dc9efbe	0.0986018
227	0x3ceb02f6	0.028687935
228	0xbd1255e0	-0.035726428
229	0x3d36d56f	0.04463714
230	0x3d4ee850	0.05051452
231	0x3db66af0	0.089071155
232	0x3dd13ffe	0.10217284
233	0xbc8fa70e	-0.017535713
234	0xbc931713	-0.017955339
235	0x3d470fcd	0.048599053
236	0xbdd1adc8	-0.10238224
237	0x3da9ffec	0.08300766
238	0x3c4dfa58	0.012571894
239	0xbcdc20b4	-0.026871063
240	0xbd9b43f9	-0.07581324
241	0xbe009fa6	-0.12560901
242	0x3da4bcba	0.08043809
243	0x3b7ab11b	0.0038252536
244	0xbc3d8ef6	-0.011569729
245	0x3c6def14	0.014522333
246	0x3cda8a44	0.026677258
247	0x3ca1702e	0.019706812
248	0x3e07042b	0.13185184
249	0xbdd24377	-0.10266774
250	0xbd3cfdc1	-0.046140436
251	0xbd97a542	-0.07404567
252	0x3dcaf82c	0.09910616
253	0x3d7676b5	0.0601718
254	0xbcfa4a35	-0.030552963
255	0xbd9f4eb5	-0.07778684

conv1.bias f4 [32]
0	0x3dbd8b56	0.09255092
1	0xbc8f3cca	-0.017485041
2	0xbc976e46	-0.0184852
3	0xbda4cbed	-0.08046708
4	0x3c2bce04	0.01048613
5	0x3d503512	0.05083186
6	0xbda2e2ad	-0.07953391
7	0xbd3d58b7	-0.046227183
8	0x3de4e18f	0.111758344
9	0xbda9ab93	-0.08284678
10	0x3d015339	0.031573508
11	0x3da5aea0	0.08089948
12	0x3dc392da	0.09549494
13	0xbd0566a7	-0.0325686
14	0x3deb4aa9	0.1148885
15	0x3dcda2b1	0.100407965
16	0xbcaf0090	-0.021362573
17	0x3dbbb861	0.09166027
18	0x3d69f5a7	0.057119038
19	0xbc1527c5	-0.00910372
20	0xbbe0f6ab	-0.0068653426
21	0xbd8617d5	-0.06547514
22	0x3c907e4b	0.017638346
23	0xbd3f7c36	-0.046749316
24	0x3d82db55	0.063894905
25	0xbc891bec	-0.016736947
26	0xbd7e5e3a	-0.06210158
27	0x3da3bf4b	0.079954706
28	0x3dde1e21	0.108455904
29	0x3da82554	0.08210245
30	0xbd985a06	-0.074390456
31	0x3cfe05c7	0.031008614

conv2.weight f4 [64, 32, 3, 3]
0	0x3d8222ed	0.06354318
1	0x3cb79f32	0.022414777
2	0xbc8e4f50	-0.017371804
3	0xbbfae8b4	-0.007657135
4	0xbd250604	-0.04028894
5	0xbc8428fe	-0.016132828
6	0xbcdf3a70	-0.027249545
7	0xbd15b208	-0.036546737
8	0x3ba1d46a	0.004938652
9	0x3ccc725e	0.024956878
10	0xbc8d51cd	-0.01725092
11	0xbc473eeb	-0.012160997
12	0x3d524e82	0.051344402
13	0x3d8007fe	0.062515244
14	0xbcd94f67	-0.02652712
15	0x3d758387	0.059939887
16	0x3cc13ff1	0.02359006
17	0xb89b10f4	-7.394134e-05
18	0xbbfc4b03	-0.007699372
19	0x3cc17dca	0.023619551
20	0x3d94c909	0.07264907
21	0x3d20dae8	0.039271265
22	0x3d492aae	0.04911297
23	0x3d42261a	0.047399618
24	0x3c421892	0.011846678
25	0xbd8881d7	-0.0666539
26	0x3d77505e	0.06037938
27	0x3d026bda	0.031841137
28	0xbca3e76c	-0.020007811
29	0x3b4a3815	0.0030856181
30	0x3c78d958	0.015188538
31	0xbd9e9ef7	-0.07745164
32	0x3b8a6481	0.004223407
33	0x3a3b03e2	0.00071340625
34	0xbd229ee7	-0.039702322
35	0xba126020	-0.0005583782
36	0xbde70586	-0.112803504
37	0x3d333760	0.04375398
38	0xbd382ee0	-0.04496658
39	0x3d0ddc25	0.034633774
40	0x3d7365c0	0.05942321
41	0x3d882dbd	0.06649349
42	0x3cebec84	0.028799303
43	0x3d99ce32	0.07510032
44	0xbc2eac25	-0.01066116
45	0x3c42f9a2	0.011900337
46	0xbaa349d3	-0.0012457914
47	0xbcc82eaf	-0.024436323
48	0x3c9262ec	0.017869435
49	0x3cc28d09	0.023748891
50	0xbd373880	-0.044731617
51	0x3d568e8b	0.052382033
52	0x3c42be25	0.011886154
53	0x3c87e4ee	0.016588654
54	0x3d9b1298	0.07571906
55	0x3d01dfe1	0.03170765
56	0xbc247a66	-0.010038948
57	0x3ad8957a	0.001652404
58	0x3d756462	0.059910186
59	0x3cd676a9	0.026179628
60	0x3c7d2b87	0.015452272
61	0xbcd141c6	-0.025544059
62	0x3dacd892	0.08439745
63	0xbc09372e	-0.008374972
64	0xbd1dc22a	-0.038515247
65	0x3befea99	0.0073216674
66	0x3ccafd4e	0.024778988
67	0x3d3ff1be	0.046861403
68	0x3c93729e	0.01799899
69	0xbcd62d23	-0.02614457
70	0xbd8a7346	-0.06760268
71	0x3d3aa59e	0.0455681
72	0x3a5eef5a	0.0008504294
73	0xbccbcddd	-0.024878437
74	0xbd314229	-0.043275986
75	0xbb6e82e3	-0.0036393933
76	0xbd866047	-0.06561332
77	0x3d0f55f7	0.03499409
78	0x3cfd7d40	0.030943513
79	0x3cc4b818	0.024013564
80	0x38ebe964	0.000112491456
81	0x3cac043e	0.020998117
82	0xbb897729	-0.004195113
83	0x3de33b9b	0.11095353
84	0x3d4bec84	0.049786106
85	0xbd118ad9	-0.035532806
86	0xb97f2592	-0.00024332691
87	0xbc91ce76	-0.017798644
88	0xbd0476fb	-0.03234003
89	0xbc03463f	-0.008012353
90	0x3c57c3c8	0.0131692365
91	0x3c431d79	0.011908882
92	0xbc4dbc74	-0.012557138
93	0x3a91fb64	0.0011137542
94	0x3d9be9ab	0.07612928
95	0x3d2ab384	0.041675106
96	0xbcba5fe5	-0.022750804
97	0xbbf55289	-0.0074866456
98	0xbcf43d15	-0.029814282
99	0xbcc410b1	-0.02393374
100	0xbd2755fd	-0.04085349
101	0xbd22cfb9	-0.03974888
102	0x3a8b4d68	0.0010627927
103	0x3c720a3d	0.014772949
104	0x3d203a7d	0.03911828
105	0xbd3dd840	-0.04634881
106	0xbbaa9484	-0.0052056927
107	0x3d7176f9	0.05895135
108	0x3d3d5c0e	0.04623037
109	0x3d661510	0.05617243
110	0xbd3f6782	-0.046729572
111	0xbc9f7702	-0.019465927
112	0xbac03a22	-0.0014665762
113	0x3d89f893	0.06736865
114	0xbc5b9665	-0.013402556
115	0xbd5e6950	-0.054299653
116	0xbda0f555	-0.07859293
117	0x3d4cc685	0.04999401
118	0x3c850d7b	0.01624178
119	0x3db2fb0a	0.08739288
120	0xbd85b587	-0.06528764
121	0x3d5743ba	0.052554823
122	0xbcba91ae	-0.022774544
123	0x3d221589	0.03957132
124	0xbd1279bb	-0.035760622
125	0x3cc4cd3d	0.024023646
126	0x3c8ea68c	0.0174134
127	0x3c9235ac	0.017847858
128	0x3da76543	0.08173611
129	0x3ccb8bdb	0.024846962
130	0x3d8aef29	0.067838974
131	0x3b729608	0.0037015695
132	0x3c392764	0.011300895
133	0x3d2a3860	0.04155767
134	0x3cf5c799	0.030002402
135	0x3c16d04f	0.009204938
136	0x3c2edeb5	0.010673215
137	0x3d4cd4a5	0.05000748
138	0x3c93731a	0.01799922
139	0x3d82ceb7	0.06387084
140	0x3d42693d	0.047463644
141	0x3d2c34a6	0.042042397
142	0x3cb0067c	0.021487467
143	0x3cee794e	0.029110577
144	0x3d366ffd	0.044540394
145	0x3cda6a65	0.026662061
146	0xbc2f20e9	-0.010688999
147	0x3c6a3fb7	0.014297417
148	0xbc162720	-0.009164602
149	0x3d95be89	0.07311732
150	0x3c3d1267	0.011540032
151	0xbce1b213	-0.027550733
152	0xbdf5280f	-0.11970531
153	0x3d51ad74	0.05119081
154	0xbd9c61cf	-0.07635843
155	0x3d99c764	0.07508734
156	0x3c32c4c6	0.010911172
157	0x3cd5ec57	0.026113672
158	0xbcbf09a2	-0.023320023
159	0xbd30673a	-0.043067195
160	0xbd6e33a6	-0.058154725
161	0xbd1f78c6	-0.038933538
162	0x3d28fbd3	0.041255783
163	0xbc9a9f67	-0.018874837
164	0xbd3ce637	-0.046117987
165	0xbd0d7deb	-0.034543913
166	0xbd07038c	-0.032962367
167	0xbd9fbb6c	-0.0779942
168	0x3c3a5179	0.011371964
169	0x3d950d2d	0.07277904
170	0xbc012d97	-0.007884405
171	0x3d436d33	0.047711562
172	0x3aa38229	0.0012474704
173	0xbb35fddd	-0.0027769723
174	0x3ca7a0cb	0.020462414
175	0xbbe34c01	-0.0069365506
176	0x3d8d6326	0.06903677
177	0xbd35c4d0	-0.04437715
178	0x3ca5efb3	0.020255899
179	0xbc305729	-0.010762968
180	0x3c4903b8	0.012268953
181	0x3d114cdf	0.0354737
182	0x3d628744	0.05530478
183	0x3d441384	0.047870174
184	0xbd30d8ef	-0.043175634
185	0xbd1b1314	-0.03785999
186	0x3d8daff3	0.06918325
187	0xbd82cbfc	-0.06386563
188	0x3d25c72a	0.04047314
189	0x3d5cfd67	0.0539526
190	0xbd963d69	-0.07335932
191	0xbcafa777	-0.021442158
192	0xbe13b661	-0.14425041
193	0xbd2d54f0	-0.04231733
194	0x3d4665af	0.048436817
195	0x3ce020fc	0.027359478
196	0x3cb6a46b	0.022295197
197	0x3d84ffa6	0.064940736
198	0xbce53102	-0.02797747
199	0xbd4abfb0	-0.049499214
200	0x3c5a77bc	0.013334211
201	0x3c6fea5b	0.014643277
202	0x3b868759	0.00410549
203	0xbbb3afc4	-0.0054835994
204	0x3d61a6b9	0.05509064
205	0xbd905b00	-0.07048607
206	0xbca15b52	-0.019696865
207	0x3d11f818	0.03563699
208	0xbb49a0e1	-0.0030766057
209	0x3d892de2	0.066982046
210	0x3d8c96c0	0.06864691
211	0x3c095a45	0.008383338
212	0xbd0259b1	-0.031823818
213	0x3d87e494	0.06635395
214	0xbcc98c3d	-0.024603004
215	0x3d6f76cf	0.058462914
216	0x3cb806f0	0.022464246
217	0xbd15e9b3	-0.036599826
218	0x3b075de0	0.002065532
219	0x3d2a4010	0.041565
220	0x3d28b5c6	0.041188978
221	0xbcb344d5	-0.021883408
222	0x3a7bcc81	0.00096053636
223	0xbd3f105a	-0.046646453
224	0x3d63e1b8	0.055635184
225	0x3d504090	0.05084282
226	0xba085332	-0.00052003853
227	0x3c86644e	0.01640525
228	0x3ab53402	0.0013824704
229	0x3cddb364	0.02706308
230	0x3d55a69d	0.052160848
231	0xbc2a556d	-0.010396344
232	0x3c95d0f7	0.018288119
233	0x3d74b098	0.059738725
234	0x3d0319fd	0.032007206
235	0x3cf82dab	0.030295214
236	0xbd0dc165	-0.034608264
237	0xbd9290de	-0.071565375
238	0x3c67d190	0.014149085
239	0xba90d02c	-0.0011048368
240	0x3d28936f	0.04115623
241	0xbc9b61b9	-0.018967496
242	0x3ba75e73	0.005107695
243	0xbdd4f7df	-0.1039884
244	0xbd7d702c	-0.061874554
245	0xbcceeae2	-0.025258485
246	0x3d8c5985	0.06853012
247	0x3db177dc	0.086654395
248	0xbdd33cad	-0.10314307
249	0xbca00144	-0.019531853
250	0xbd0bd56b	-0.034139078
251	0x3dc06a33	0.09395256
252	0xbc6df486	-0.014523631
253	0xbc4e61cd	-0.01259656
254	0xbcfc7495	-0.03081731
255	0xbd4a2a2a	-0.049356617

conv2.bias f4 [64]
0	0x3c8a350a	0.016870994
1	0x3d49d2b8	0.049273223
2	0xbd3384b7	-0.04382774
3	0xbd17d1c7	-0.037065294
4	0x3d3ccab2	0.046091743
5	0x3d0f6872	0.035011716
6	0xbcd8e3e0	-0.026475847
7	0x3dd61d2f	0.10454785
8	0x3c80403b	0.015655627
9	0xbd00e331	-0.031466667
10	0xbcb90116	-0.022583526
11	0xbd0ee795	-0.034888823
12	0xbc19a78d	-0.009378326
13	0x3d6fd345	0.05855109
14	0x3d956833	0.07295265
15	0xbcff2f03	-0.031150347
16	0x3be0a71a	0.0068558576
17	0xbd2b0c4b	-0.04175977
18	0xbccb18ae	-0.024792042
19	0xbca338f0	-0.01992461
20	0x3adcf128	0.0016856538
21	0x3b46d010	0.0030336417
22	0xbce35a50	-0.027753025
23	0x3cb99733	0.022655105
24	0xbd17d108	-0.037064582
25	0xbcd1c5b0	-0.02560696
26	0xbd20f0b4	-0.039292052
27	0x3da8dcb5	0.082452215
28	0x3bc91544	0.0061365683
29	0x3d8809e4	0.066425115
30	0x3cf31d44	0.02967704
31	0xbd371f0b	-0.04470734
32	0xbc4b4255	-0.0124059515
33	0x3d510a8c	0.05103545
34	0x3d7b7f2e	0.061400585
35	0x3c94e7a7	0.018176867
36	0x3d2f455e	0.042790763
37	0x3dace6a5	0.084424295
38	0x3d78f4c6	0.06078031
39	0x3d9cecee	0.07662378
40	0x3dfafbef	0.12255084
41	0x3cd9f6d2	0.02660695
42	0x3c47afc0	0.012187898
43	0x3db190d9	0.086702056
44	0x3dc2f589	0.09519488
45	0x3cc609f0	0.02417466
46	0x3c210db1	0.009829924
47	0xbce2930b	-0.027658006
48	0x3ddb9c76	0.10723202
49	0xbd374b3e	-0.04474949
50	0x3da97529	0.082743
51	0x3de3a057	0.11114567
52	0xbc5b6bf8	-0.013392441
53	0x3b43d714	0.0029882835
54	0x3c3075a1	0.010770232
55	0xbc84502a	-0.016151506
56	0x3d15be5b	0.03655849
57	0x3d0df051	0.03465301
58	0xbd5c72e5	-0.05382051
59	0x3d3cff3c	0.046141848
60	0x3cbd04d5	0.023073593
61	0x3c58070c	0.013185274
62	0x3ded5238	0.115879476
63	0x3c620e8e	0.013797415

fc2.weight f4 [16, 1024]
0	0x3d513486	0.05107548
1	0x3d460d65	0.048352618
2	0x3c3799d1	0.011206106
3	0xbcd479fa	-0.02593707
4	0x3b9dc43e	0.0048146537
5	0xbca0af6e	-0.019614901
6	0x3d266450	0.04062301
7	0x3b0f0aeb	0.0021826576
8	0xbd3f44c7	-0.04669645
9	0x3d23c8f3	0.039986562
10	0xbd3bd0a2	-0.045853265
11	0xbcfd4010	-0.030914336
12	0x3d125316	0.03572377
13	0x3d164d05	0.036694545
14	0x3cc2528a	0.023720998
15	0x3d9408d7	0.072282486
16	0x3d26eeab	0.040754955
17	0xbcc0d978	-0.023541197
18	0x3c74cd0e	0.014941467
19	0x3c00f74c	0.00787146
20	0xbcc304fc	-0.023806088
21	0xbc746b09	-0.014918097
22	0xbc8a56bf	-0.016887067
23	0xbdb4480b	-0.088028036
24	0x3cbdf153	0.023186361
25	0x3d692d95	0.056928236
26	0xbd0ca69f	-0.03433859
27	0xbd366252	-0.04452736
28	0xbd351f48	-0.044219285
29	0x3d73e734	0.059546664
30	0xbcd068e6	-0.025440644
31	0xbd29313b	-0.041306715
32	0xbb17d87d	-0.0023169809
33	0xbc46485a	-0.012102211
34	0x3c3782cc	0.011200618
35	0xbc50546e	-0.012715442
36	0xbd16e2dd	-0.036837447
37	0x3c950915	0.018192807
38	0xbcfc1490	-0.030771524
39	0x3ba5bd08	0.0050579347
40	0x3da5047f	0.08057498
41	0xbc8aabb4	-0.016927578
42	0xbc97a10c	-0.01850941
43	0x3d1cd44c	0.0382884
44	0xbd79aa08	-0.06095317
45	0x3b8d9275	0.0043204376
46	0x3dd5a001	0.10430909
47	0x3d656967	0.056008723
48	0xbd35cb7b	-0.044383507
49	0x3c989175	0.018624047
50	0x3d4c0067	0.04980507
51	0xbd312759	-0.043250415
52	0xbc798ede	-0.015231816
53	0x3cfc9c1c	0.030836158
54	0x3cc53d03	0.024076944
55	0xbc2f9036	-0.010715535
56	0xbd015381	-0.031573776
57	0xbc4c3c68	-0.012465574
58	0x3d6016cf	0.054709252
59	0xbaf8306c	-0.0018935329
60	0x3d39cddc	0.04536234
61	0x3baeea9b	0.0053380257
62	0x3ba26baf	0.0049566845
63	0xbc949fd0	-0.01814261
64	0xbcacbe05	-0.021086702
65	0xbd938dda	-0.072047904
66	0xbc626a64	-0.013819311
67	0xba744a73	-0.0009318955
68	0xbad9e2ab	-0.0016623338
69	0x3c7ab11e	0.015301017
70	0x3c6986df	0.014253347
71	0xbc286596	-0.010278126
72	0xbd857ca4	-0.06517914
73	0xbdba4c07	-0.09096532
74	0xbc290ec6	-0.010318464
75	0x3b01493a	0.0019727484
76	0x3c46f0b6	0.012142351
77	0x3cceb649	0.025233405
78	0xbbcd88e4	-0.006272422
79	0xbd21bde3	-0.03948773
80	0x3b167b4e	0.002296168
81	0x3cebd08b	0.028785964
82	0x3cc6711e	0.02422386
83	0xbd194a55	-0.037424404
84	0x3c06280e	0.008188261
85	0xbca349e3	-0.019932693
86	0x3d97f3d2	0.07419552
87	0xbd92d97b	-0.07170387
88	0x3cdd4f62	0.027015392
89	0x3d562a49	0.05228642
90	0x3ba361de	0.004986032
91	0xbc33e09a	-0.010978842
92	0x3c820989	0.015873687
93	0xbca6bbf5	-0.020353297
94	0x3c8ba6a8	0.017047241
95	0xbd264725	-0.040595192
96	0x3ba820d8	0.0051308684
97	0x3c9438a1	0.018093409
98	0xbd91a98f	-0.07112419
99	0xbd303962	-0.043023475
100	0x3a5f3257	0.0008514276
101	0x3d7067dc	0.058692798
102	0xbca86dee	-0.020560231
103	0x3b24ab48	0.0025126506
104	0x3d3c3345	0.045947332
105	0xbdfc0de6	-0.123073384
106	0xbc38162c	-0.011235755
107	0x3ae05b45	0.0017117044
108	0x3b9518ae	0.004550061
109	0x3d794a94	0.06086214
110	0x3c404ab4	0.011736561
111	0xbc1d1712	-0.00958802
112	0x3c4e9f32	0.012611197
113	0xbb3b6398	-0.0028593298
114	0x3d27edf9	0.040998433
115	0xbc1f812a	-0.009735385
116	0x3cd0eb2d	0.025502766
117	0x3d0401a7	0.03222814
118	0xbc827392	-0.015924249
119	0xbd95ed68	-0.07320672
120	0xbb4a6867	-0.0030884983
121	0x3d145841	0.036216978
122	0x3a105361	0.00055055885
123	0x3c15417e	0.009109853
124	0xbd0abae9	-0.033869658
125	0x3d22ffdb	0.039794784
126	0xbc66540c	-0.014058124
127	0x3ddccf63	0.107817434
128	0xbc82cacd	-0.015965844
129	0x3d359723	0.04433359
130	0x3a5ff17b	0.00085427583
131	0x3d070717	0.032965746
132	0xbc990b2c	-0.018682085
133	0x3cb4028a	0.021973867
134	0xbd8710a2	-0.06594969
135	0x3ce50814	0.027957954
136	0x3d6e1baa	0.05813185
137	0x3cb1c287	0.021699203
138	0x3d223f91	0.039611403
139	0xbd8afdee	-0.067867145
140	0xbccd61b1	-0.025070997
141	0x3cf38e6a	0.029730994
142	0xbd4a2416	-0.04935082
143	0x3db960c8	0.09051663
144	0x3cb6423f	0.022248385
145	0xbc922365	-0.017839143
146	0xbd20b5cf	-0.039235886
147	0xbc049f66	-0.008094644
148	0x3d23090d	0.039803553
149	0x3a960bff	0.0011447667
150	0xbca387bb	-0.019962182
151	0x3d231ec5	0.039824266
152	0xbc79c17c	-0.015243884
153	0x3d029c6b	0.031887453
154	0xbaecb235	-0.0018058481
155	0x3d181179	0.03712604
156	0x3a828daf	0.0009960438
157	0xbcc63f41	-0.024200084
158	0x3cbcfa03	0.023068434
159	0xbde17a12	-0.11009611
160	0xbc1bf02b	-0.00951771
161	0xbd955060	-0.07290721
162	0xbde3250e	-0.11091052
163	0x3ce195b7	0.02753721
164	0x3b712150	0.0036793537
165	0x3cd739d3	0.02627269
166	0x3cd291d0	0.025704294
167	0xbd1f6218	-0.03891191
168	0xbbec2b63	-0.0072073205
169	0x3d87d3ee	0.06632219
170	0xbdbc627f	-0.09198474
171	0x3d16c192	0.036805697
172	0xbd414030	-0.047180355
173	0x3cc5d72c	0.024150454
174	0x3c48090f	0.012209191
175	0x3c323400	0.010876656
176	0xbb9c9d49	-0.004779492
177	0x3cd14e69	0.025550084
178	0xbba0243b	-0.0048871315
179	0xbbdad92d	-0.0066787214
180	0x3ca47843	0.020076877
181	0xbd181b0c	-0.03713517
182	0x3c2f17c7	0.010686821
183	0xbd39530d	-0.04524522
184	0xbcb69108	-0.022285953
185	0xbd84c3dc	-0.0648267
186	0x3d82767e	0.06370257
187	0x3d68fe69	0.05688325
188	0x3d1f0605	0.0388241
189	0x3a78591b	0.0009473727
190	0x3aba1074	0.0014195577
191	0x3ccf31a2	0.025292221
192	0xb9c9b87b	-0.00038475156
193	0xbca3f686	-0.020015012
194	0x3c4e8dd7	0.012607059
195	0xbc9a8e96	-0.018866818
196	0x3ce14f44	0.027503617
197	0xbd310af5	-0.04322334
198	0xbcfbb970	-0.030728072
199	0x3997ea41	0.00028975497
200	0xbd33bde2	-0.04388226
201	0x3ca0eddb	0.019644668
202	0xbc0136fb	-0.0078866435
203	0xbd27fd8e	-0.041013293
204	0xbd2efb9a	-0.042720415
205	0x3d3bbd18	0.04583463
206	0xbbe4c1e8	-0.0069811232
207	0x3d9f8571	0.07789124
208	0xbcd28ad9	-0.025700973
209	0xbbe42c94	-0.006963322
210	0xbc9472fe	-0.018121239
211	0x3d49a126	0.04922595
212	0x3ccbab11	0.024861844
213	0xbd9700bb	-0.07373186
214	0xbc7a7e9e	-0.015288977
215	0x3b79e48d	0.0038130612
216	0x3b6214f9	0.0034497364
217	0x3e10b2ef	0.14130758
218	0x3ce5549f	0.027994452
219	0xbd7c8698	-0.061651796
220	0xb8f8e53c	-0.0001186826
221	0xbc8f8ca2	-0.017523114
222	0xbcb24017	-0.021759076
223	0x3bc228fc	0.005925296
224	0xbca93894	-0.020656861
225	0x3d9dc386	0.07703309
226	0xbd0bb6f9	-0.034110043
227	0x3c8ef296	0.017449658
228	0x39c50003	0.00037574777
229	0xbd19a839	-0.037513945
230	0x3bb537d5	0.0055303373
231	0xbccb8ae9	-0.024846511
232	0x3c5339cd	0.012892199
233	0x3d1b9b30	0.037989795
234	0x3cb9e886	0.022693884
235	0xbd0b7a04	-0.03405191
236	0x3d074946	0.033028863
237	0x39f7f392	0.00047292985
238	0xbbe14588	-0.006874744
239	0x3cae8fbb	0.02130877
240	0x3d516081	0.051117424
241	0x3d313840	0.043266535
242	0x3c73031a	0.014832282
243	0xbab94cd1	-0.0014137273
244	0xbd7243fe	-0.059146874
245	0x3cc7e4a9	0.024401026
246	0xbac381d4	-0.0014916011
247	0x3dbfbd26	0.09362249
248	0x3a61d2d5	0.0008614485
249	0xbd1cc6c7	-0.038275506
250	0xbccb62d4	-0.024827398
251	0xbc72bd2d	-0.014815611
252	0xbb2e6e9f	-0.0026616228
253	0xbda5ec78	-0.081017435
254	0xbd01cfb0	-0.031692207
255	0xbc3e18ed	-0.011602622

fc2.bias f4 [16]
0	0xbc93e7f3	-0.018054938
1	0x3b9da139	0.004810479
2	0xbce1cdd4	-0.027563967
3	0x3cf12e14	0.029440917
4	0xbab0aaf2	-0.001347868
5	0xbd1baa22	-0.03800405
6	0x3c2c2ec8	0.0105092
7	0x3d0c51a7	0.034257557
8	0xbc599d24	-0.013282094
9	0xbd19e539	-0.03757212
10	0xbcc590b5	-0.024116853
11	0x3ca3837a	0.019960154
12	0x3d13ca02	0.03608132
13	0x3cdb8c37	0.026800258
14	0x3cb9c6e5	0.022677848
15	0xbcd8e3f5	-0.026475886
