tactile_model/model/best_forward_model.pt (torch, 164495 bytes, 8 tensors)

fc1.weight f4 [256, 3]
0	0xbdf8e33e	-0.12152718
1	0x3f1588b1	0.584117
2	0xbf128709	-0.572373
3	0x3eb646ab	0.3560079
4	0xbee4edd0	-0.44712687
5	0xbeaf22f7	-0.34206364
6	0xbd0f6e22	-0.03501714
7	0x3aaab0fc	0.0013022716
8	0x3da78ef8	0.08181566
9	0xbed7a645	-0.4211904
10	0x3bcb61b1	0.006206714
11	0x3f174fa8	0.5910592
12	0x3e9c37f4	0.3051144
13	0x3c57ddb7	0.0131754195
14	0xbf162541	-0.58650595
15	0x3f01e203	0.5073549
16	0x3dc38c95	0.09548298
17	0xbe38a2ae	-0.18030807
18	0xbef653c9	-0.48110798
19	0xbe22fec5	-0.159175
20	0x3c461fca	0.01209254
21	0x3df13bc5	0.11778978
22	0xbee0a9e7	-0.43879625
23	0xbe9c3997	-0.30512688
24	0xbef8fa76	-0.48628587
25	0x3e49ab4b	0.1969425
26	0x3ed83fad	0.4223608
27	0x3e293585	0.16524322
28	0xbeaff9d4	-0.3437029
29	0xbefaaa7e	-0.489582
30	0x3f0d5a22	0.55215657
31	0x3ec83918	0.3910606
32	0x3f0df90f	0.5545816
33	0x3e202ebd	0.15642829
34	0x3f082288	0.5317769
35	0x3d30c112	0.043152876
36	0x3ee6ab1b	0.45052418
37	0xbe660d2c	-0.22465962
38	0x3e4365fd	0.19081874
39	0x3e82742a	0.2547925
40	0x3ecedea3	0.40404233
41	0x3ee6ec6b	0.45102248
42	0x3efbd9d2	0.4918962
43	0xbc153777	-0.009107462
44	0xbe785cbe	-0.24254128
45	0x3bbba752	0.0057267332
46	0xbeadfec6	-0.3398344
47	0xbeb2b512	-0.3490377
48	0xbd7632b3	-0.060106944
49	0x3ec64c39	0.38730028
50	0x3ebf8149	0.37403324
51	0x3f0a8cf3	0.5412132
52	0x3e41fa2e	0.18943092
53	0xbf0e4dc6	-0.5558742
54	0xbf13f71a	-0.5779892
55	0xbc0903e3	-0.008362743
56	0xbebee1e1	-0.37281707
57	0x3ec180ef	0.3779368
58	0xbeff441c	-0.4985665
59	0x3efb97f3	0.49139366
60	0x3ee836cf	0.45354316
61	0xbf13c4b5	-0.57722026
62	0xbefe8df5	-0.4971768
63	0x3ecd4f59	0.400996
64	0xbe3bb743	-0.18331628
65	0xbf096cc8	-0.5368161
66	0xbf0c34f6	-0.5476831
67	0x3d0d4077	0.034485307
68	0x3e6fa402	0.23402408
69	0x3ce2c814	0.027683295
70	0x3e9f905b	0.31164822
71	0xbe0858e2	-0.13315156
72	0x3e8f088c	0.27936208
73	0xbe559a26	-0.20859584
74	0xbe4cc88c	-0.19998378
75	0xbe88dd46	-0.26731318
76	0x3edc8f2e	0.43077987
77	0x3ea3b08a	0.31970626
78	0x3f0b6c33	0.54461974
79	0x3e9c0e1f	0.30479524
80	0xbeea164d	-0.4572014
81	0xbeaa3400	-0.33242798
82	0xbe161e41	-0.14659978
83	0x3eda722c	0.4266523
84	0x3e7e209d	0.24817128
85	0x3ddcfe7b	0.10790726
86	0xbee1f97a	-0.44135648
87	0x3ed5fb8c	0.41793478
88	0xbe0ed71f	-0.1394925
89	0xbde7eb72	-0.113242045
90	0xbe2e8bae	-0.17045471
91	0xbea21038	-0.31653
92	0x3dde0827	0.10841399
93	0xbf1336e4	-0.5750563
94	0x3d95899d	0.07301638
95	0x3e74a19c	0.23889774
96	0xbe9acad0	-0.3023286
97	0xbeac346f	-0.33633754
98	0x3ef0ec5b	0.47055325
99	0x3e80732f	0.25087878
100	0x3f1683b3	0.5879471
101	0xbebed9f8	-0.37275672
102	0xbe5586b4	-0.20852166
103	0x3ef1e497	0.47244713
104	0xbde20dd3	-0.11037793
105	0xbe5667a7	-0.20937978
106	0xbec8f0ac	-0.39246118
107	0x3f00ea9c	0.50357985
108	0x3ead6d7e	0.33872598
109	0xbf036392	-0.5132381
110	0xbee7e4e7	-0.45291826
111	0xbf171c43	-0.590275
112	0x3e806886	0.25079745
113	0xbea3f2db	-0.32021222
114	0xbe1a2574	-0.1505335
115	0x3eccfdeb	0.40037474
116	0x3e1e44f9	0.15455998
117	0xbed10690	-0.4082532
118	0x3e877d69	0.26462868
119	0x3f143e08	0.5790715
120	0xbeaf042a	-0.34182864
121	0x3dce3b00	0.10069847
122	0x3f0400dd	0.5156382
123	0xbd70ed6c	-0.058820173
124	0xbf17d5f0	-0.5931082
125	0xbd0c91d3	-0.034318756
126	0x3e115446	0.14192304
127	0x3bb76c29	0.0055976105
128	0x3ec91eb3	0.39281234
129	0xbea3c142	-0.31983382
130	0xbf0b37c6	-0.5438198
131	0x3e9df2d5	0.3084933
132	0x3e61f31b	0.22065394
133	0xbf15630b	-0.5835425
134	0x3eac165e	0.33610815
135	0x3e1bef3d	0.15227981
136	0xbec9f7f0	-0.39446974
137	0xbc78b048	-0.0151787475
138	0x3e5811bb	0.21100514
139	0x3e34baab	0.17649333
140	0xbeb4fbf9	-0.3534849
141	0xbec74d15	-0.38925996
142	0xbe76f88b	-0.24118249
143	0xbf034499	-0.51276547
144	0xbda04773	-0.07826128
145	0xbee18b20	-0.44051456
146	0x3c99618d	0.018723274
147	0xbed5431c	-0.41652763
148	0x3eabf78d	0.33587304
149	0x3eebbc73	0.46042213
150	0xbf02ba6c	-0.5106571
151	0x3dddc89c	0.10829279
152	0xbeff53ce	-0.49868625
153	0x3dc2dd36	0.09514849
154	0x3f072b11	0.5280009
155	0xbe92adc4	-0.28648198
156	0xbee1a5ed	-0.44071904
157	0x3e971f3f	0.29516026
158	0xbe581bf9	-0.2110442
159	0x3e4e57b5	0.20150645
160	0x3edb45f3	0.42826805
161	0x3e26dbfb	0.16294853
162	0xbf09b22c	-0.53787494
163	0xbf0e1d1d	-0.55513173
164	0xbed80215	-0.42189088
165	0x3e5db1b5	0.21649821
166	0xbe4175c9	-0.18892588
167	0xbe41b6e1	-0.18917419
168	0xbef02e55	-0.4691035
169	0xbec2984d	-0.3800682
170	0x3dd9fbad	0.106437065
171	0x3e0960ad	0.13415785
172	0x3e4ccd41	0.20000173
173	0xbec04a0a	-0.37556487
174	0xbe03fc34	-0.12889177
175	0x3e2b8c28	0.16752684
176	0x3f10399e	0.56337917
177	0xbe2a0d1d	-0.16606565
178	0x3ece09f6	0.40241975
179	0xbe0006fa	-0.12502661
180	0xbdbd9099	-0.092560954
181	0xbf179cc6	-0.5922359
182	0xbe902d81	-0.28159717
183	0x3f044fea	0.5168444
184	0x3f0c93e9	0.54913193
185	0x3f09981e	0.5374774
186	0x3daf8e9d	0.08572123
187	0x3e8bdecc	0.27318418
188	0xbef9799e	-0.487256
189	0xbe2eac17	-0.17057835
190	0xbf07cb8d	-0.5304497
191	0x3d998082	0.07495214
192	0xbc9690ac	-0.018379532
193	0x3efc7784	0.49309933
194	0x3ec19491	0.3780866
195	0x3e866ae4	0.26253426
196	0x3da8f404	0.08249667
197	0xbea93399	-0.33047178
198	0xbe1179ac	-0.1420657
199	0xbda31615	-0.07963196
200	0x3da83fd8	0.08215302
201	0xbf0682e0	-0.5254345
202	0x3ef1b60d	0.47209206
203	0x3e573896	0.2101768
204	0xbe99c50e	-0.30033153
205	0xbed3c95b	-0.4136456
206	0xbec7e37f	-0.39040753
207	0x3d48ecb7	0.049053874
208	0x3e17c2b2	0.14820364
209	0x3d73b269	0.059496317
210	0xbe38d367	-0.18049394
211	0xbee3e0bb	-0.44507393
212	0xbec5269d	-0.38506022
213	0xbd816381	-0.06317807
214	0x3d7462ce	0.05966454
215	0x3e72998c	0.23691386
216	0x3d3e8759	0.046515796
217	0xbeeaeafe	-0.4588241
218	0x3e88e3c8	0.26736283
219	0x3e1e9f49	0.1549045
220	0xbe3b7b12	-0.18308666
221	0xbeb68adc	-0.35652816
222	0xbee54c6a	-0.44784862
223	0xbebf52d0	-0.37367868
224	0x3cde3988	0.027127042
225	0xbdbba02c	-0.0916141
226	0x3e518008	0.20458996
227	0xbef0e609	-0.47050503
228	0x3f0f58e0	0.5599499
229	0x3ef5f278	0.4803655
230	0xba82b2cd	-0.00099715
231	0x3e04e2e3	0.12977175
232	0x3e15f6e4	0.14644963
233	0x3ea5f48c	0.32413137
234	0x3efbe65a	0.49199182
235	0xbe6961ea	-0.22791258
236	0xbed3f5fe	-0.41398615
237	0xbf08eb37	-0.5348391
238	0xbecc8790	-0.39947176
239	0x3e5f7eed	0.21825762
240	0xbce169aa	-0.027516205
241	0x3e87baea	0.26509792
242	0x3eae951f	0.34098145
243	0xbeb9980a	-0.3624881
244	0xbeccf10a	-0.40027648
245	0x3e9331f3	0.28749046
246	0x3eaeac3a	0.34115773
247	0xbd060a42	-0.032724626
248	0x3e7fc7b1	0.2497852
249	0x3e3d043a	0.18458644
250	0x3e9b4263	0.30324087
251	0xbf0aab7f	-0.5416793
252	0x3e61477d	0.21999927
253	0x3e00f7bf	0.12594508
254	0xbf107a45	-0.5643657
255	0x3d05bb91	0.03264958

fc1.bias f4 [256]
0	0x3f00c74c	0.503041
1	0xbef9c0fc	-0.48780048
2	0xbe6bb1e4	-0.23017079
3	0x3f17a950	0.59242725
4	0xbe894e61	-0.2681761
5	0x3e34afec	0.17645234
6	0xbe8bdf13	-0.2731863
7	0xbd1ff68e	-0.039053492
8	0x3ee4ed9e	0.44712538
9	0xbe02b17e	-0.1276302
10	0x3ec50b4c	0.3848518
11	0xbee74d27	-0.4517605
12	0xbe3835c3	-0.17989258
13	0x3e9587bf	0.2920513
14	0xbd8bb1a8	-0.068209946
15	0x3eb12c1d	0.34603968
16	0xbe3d0554	-0.18459064
17	0x3e184020	0.14868212
18	0x3d86c8a1	0.06581236
19	0xbeed93f7	-0.4640195
20	0xbe96a2eb	-0.29421172
21	0xbe8b8d96	-0.2725646
22	0xbd7346ba	-0.059393622
23	0xbf16f777	-0.5897135
24	0x3d8b2567	0.06794243
25	0xbec08250	-0.3759942
26	0x3cedeb11	0.029042752
27	0xbad0a3ae	-0.0015917921
28	0x3ed049d5	0.4068133
29	0xbe224508	-0.15846646
30	0x3ec3efa3	0.38268766
31	0x3eb239ec	0.34809816
32	0x3e94220c	0.28932226
33	0x3ef91cbd	0.48654738
34	0x3dab4a1e	0.08363746
35	0xbed6bc98	-0.4194076
36	0x3eb22f1f	0.34801576
37	0x3e86bdd4	0.26316702
38	0xbd5fe6f1	-0.054663602
39	0xbe094884	-0.13406569
40	0x3eb814f6	0.35953492
41	0x3ebafc40	0.36520576
42	0xbeffdc10	-0.49972582
43	0x3e84bae0	0.25923824
44	0xbe72a59e	-0.2369599
45	0xbeeafe80	-0.45897293
46	0xbf00cd3c	-0.5031316
47	0x3e0ba41c	0.13636822
48	0xbe394b30	-0.18095088
49	0x3eae069b	0.33989415
50	0x3e809f9d	0.25121775
51	0xbd94ed67	-0.072718434
52	0x3ef2ea43	0.47444353
53	0x3ea41e75	0.32054487
54	0x3e8f91d7	0.28040954
55	0xbe4642f8	-0.19361484
56	0x3e5b4be9	0.21415676
57	0xbe706c64	-0.23478848
58	0xbf0867ae	-0.532832
59	0x3e0feb0a	0.14054504
60	0x3db914fb	0.09037205
61	0xbead6aa1	-0.33870414
62	0xbee90a76	-0.45515794
63	0x3f0afbb3	0.5429031
64	0x3ee9f108	0.45691705
65	0x3ebe3354	0.37148535
66	0x3e956b2b	0.29183325
67	0xbf05613f	-0.5210151
68	0x3f08262e	0.5318326
69	0x3eeee95f	0.46662423
70	0x3f18d55a	0.5970055
71	0x3ee083ce	0.4385056
72	0xbeecf387	-0.46279547
73	0xbf0f2dca	-0.55929244
74	0x3f14d68a	0.5813986
75	0xbed982b4	-0.4248253
76	0xbe0b11bb	-0.13580982
77	0x3ef535c1	0.47892573
78	0xbea97246	-0.33094996
79	0xbe875a9f	-0.26436326
80	0xbe0530d3	-0.13006906
81	0xbf00943c	-0.5022619
82	0xbe161304	-0.14655691
83	0xbe6bfd93	-0.2304595
84	0xbe666f5f	-0.22503422
85	0xbed348a4	-0.41266358
86	0x3e4f628a	0.20252433
87	0x3e1d6e66	0.15374145
88	0x3ed77dca	0.42088157
89	0xbe149e79	-0.14513578
90	0x3e12b832	0.14328077
91	0x3e99c774	0.30034983
92	0x3eaafb5a	0.3339489
93	0xbd360908	-0.044442207
94	0xbeaac8ec	-0.33356416
95	0x3ed8f9f8	0.4237821
96	0xbe6b11a6	-0.22955951
97	0xbf1620af	-0.5864362
98	0xbef6f091	-0.48230413
99	0xbf15d242	-0.5852395
100	0x3e1f8638	0.15578544
101	0x3e8437d6	0.2582385
102	0x3f096adb	0.53678674
103	0x3f1b6170	0.6069555
104	0xbda4fe61	-0.080563314
105	0xbe37dc08	-0.17955029
106	0x3f021ff1	0.5082999
107	0xbeef712c	-0.4676603
108	0x3c25240b	0.010079394
109	0xbd6640e7	-0.05621424
110	0x3eb09bbb	0.34493813
111	0x3f01a1fe	0.50637805
112	0x3e0736c0	0.13204479
113	0xbf149fba	-0.58056223
114	0x3d946c02	0.07247163
115	0xbe8a6f64	-0.2703811
116	0xbeaca187	-0.33716986
117	0xbdf35cf5	-0.118829645
118	0xbda0da1d	-0.07854102
119	0x3ef8010c	0.484383
120	0xbf1bd2ec	-0.60868716
121	0xbdab8d80	-0.08376598
122	0x3cf9b89b	0.030483535
123	0xbe9327cf	-0.2874131
124	0xbdb9ccab	-0.090722404
125	0xbe830214	-0.25587523
126	0xbd6eae61	-0.05827177
127	0x3d707611	0.058706347
128	0xbf09590e	-0.5365151
129	0x3ec5ba98	0.38618922
130	0x3ec2cc8f	0.3804669
131	0xbd9db495	-0.07700459
132	0x3e9ba039	0.30395678
133	0xbf1e76e4	-0.6190016
134	0xbee96a01	-0.45588687
135	0xbf17b7ba	-0.5926472
136	0xbe755868	-0.23959506
137	0xbe0bd4e8	-0.13655436
138	0xbf0e0600	-0.55477905
139	0xbdf07e70	-0.11742866
140	0x3d3cf5cf	0.04613286
141	0xbd85952d	-0.06522594
142	0xbbd3f475	-0.0064683505
143	0x3dd577b1	0.1042322
144	0x3e2acf5b	0.16680662
145	0xbea746a5	-0.32671085
146	0x3ea5a95e	0.3235578
147	0x3dd9a6ed	0.10627542
148	0x3f0da91b	0.5533616
149	0xbf22561a	-0.6341263
150	0x3f0da626	0.5533165
151	0x3e9529ff	0.29133603
152	0x3ef00132	0.46875912
153	0xbe972701	-0.29521945
154	0xbebc0f45	-0.367304
155	0xbe886cf5	-0.26645628
156	0x3f0ca11d	0.5493334
157	0x3edd495d	0.43220034
158	0x3f134e7c	0.5754163
159	0x3e550c07	0.2080537
160	0x3df4e003	0.11956789
161	0x3ed64fc3	0.41857728
162	0xbef947dc	-0.48687637
163	0x3d24e6e3	0.040259253
164	0x3f1e13fd	0.6174925
165	0xbe8d87fd	-0.27642813
166	0x3ecef54b	0.4042152
167	0xbeb1579f	-0.34637162
168	0x3e9fd64a	0.31218177
169	0xbeeccf09	-0.46251705
170	0x3ed70274	0.4199406
171	0x3eda1e8d	0.42601433
172	0xbf06a2bb	-0.52592057
173	0xbeec76c0	-0.4618435
174	0xbe9a5fa0	-0.3015108
175	0xbef018f3	-0.46894035
176	0x3f046e6e	0.51731
177	0x3e409e85	0.1881047
178	0x3f16c6d2	0.58897126
179	0xbee66d12	-0.4500509
180	0xbec5cca0	-0.3863268
181	0x3ef8f3a0	0.4862337
182	0xbe827831	-0.25482324
183	0x3ebffefa	0.3749922
184	0xbf0c6cbb	-0.5485341
185	0xbedefb11	-0.43550923
186	0xbc29b897	-0.010358951
187	0x3e0bc5ae	0.13649628
188	0xbf13c347	-0.57719845
189	0x3ee66457	0.44998428
190	0xbea05603	-0.31315622
191	0xbf1394c8	-0.576489
192	0x3e8f0000	0.27929688
193	0xbea387c2	-0.31939512
194	0xbe9564d7	-0.29178497
195	0x3e58ed0b	0.21184175
196	0xbdaa0ad1	-0.08302844
197	0xbf19aa98	-0.6002593
198	0x3eca281c	0.39483726
199	0x3ed062be	0.40700334
200	0x3f179e3b	0.59225816
201	0x3f0a672c	0.5406368
202	0x3f10f57f	0.566246
203	0x3cb41491	0.021982463
204	0x3ec08e14	0.37608397
205	0xbea164e7	-0.31522295
206	0xbee443ee	-0.44583076
207	0x3e429acd	0.19004364
208	0x3f138fff	0.57641596
209	0x3e703dcc	0.23461074
210	0xbd7f6022	-0.06234754
211	0xbe8a943f	-0.27066228
212	0xbd5f0bd0	-0.054454625
213	0xbec5704b	-0.38562235
214	0x3ead04e4	0.33792794
215	0xbde15a82	-0.11003591
216	0x3e009944	0.12558466
217	0xbeadfd2f	-0.33982226
218	0x3ea9b302	0.33144385
219	0xbec27149	-0.37977055
220	0xbf069ea0	-0.5258579
221	0x3d213338	0.039355487
222	0xbe8a22d4	-0.26979697
223	0xbef4316f	-0.47693965
224	0xbf09269c	-0.5357454
225	0xbe1233e6	-0.1427761
226	0xbe334a5f	-0.17508839
227	0xbe50491d	-0.2034039
228	0xbe144910	-0.14480996
229	0xbcae1acd	-0.021253014
230	0xbee7fdca	-0.45310813
231	0xbd521dea	-0.05129806
232	0xbede7e1a	-0.43455583
233	0x3eaa8598	0.3330505
234	0xbddb4b4a	-0.107077196
235	0x3e8ca07b	0.27466187
236	0x3e8fd009	0.28088406
237	0x3e76f263	0.241159
238	0x3e9ef691	0.3104749
239	0x3e72cffd	0.23712154
240	0x3e6407a8	0.22268546
241	0x3ec82729	0.39092377
242	0x3e42ac4b	0.19011037
243	0x3ea02a0c	0.3128208
244	0x3e94bdf2	0.29051167
245	0x3db52b5c	0.08846161
246	0xbe48fbc9	-0.19627298
247	0xbecc3a44	-0.39888203
248	0xbef8e5c7	-0.48612806
249	0x3e8447f3	0.25836143
250	0x3dd1f842	0.102524295
251	0x3ea1f57e	0.31632608
252	0xbe05ad3a	-0.13054362
253	0xbefc9afa	-0.49336988
254	0x3e3dd12c	0.18536824
255	0xbf156998	-0.5836425

conv1.weight f4 [32, 16, 3, 3]
0	0x3da2309c	0.07919428
1	0x3da915e8	0.082561314
2	0x3d23ee11	0.04002196
3	0x3db06380	0.08612728
4	0xbdc449b7	-0.095843725
5	0xbd93b6aa	-0.07212575
6	0x3d8aced3	0.0677773
7	0xbdcf7cca	-0.101312235
8	0x3cd06ec6	0.025443446
9	0xbcff3c5b	-0.03115671
10	0xbbe76d0f	-0.0070625613
11	0xbc58617c	-0.013206836
12	0xbd98fcc6	-0.07470088
13	0xbd1dbb90	-0.03850895
14	0x3d11e4f1	0.035618726
15	0xbd562112	-0.052277632
16	0xbc2191f1	-0.009861455
17	0x3db01e42	0.08599521
18	0xbcd02c86	-0.025411855
19	0x3cd149e3	0.025547927
20	0x3d209d62	0.039212592
21	0x3dc2ee12	0.095180646
22	0x3ca4e970	0.020130843
23	0xbc647b6d	-0.013945443
24	0x3d4f3180	0.050584316
25	0x3d765e1e	0.06014835
26	0xbcd46783	-0.025928264
27	0xbda24c13	-0.07924666
28	0x3dca76e8	0.09885961
29	0xbc9afd82	-0.01891971
30	0x3df335e8	0.11875516
31	0x3d0aa3d1	0.033847634
32	0x3d5a5ac3	0.053309213
33	0xbd920aaf	-0.07130944
34	0xbca09c47	-0.019605769
35	0x3dcaef23	0.09908893
36	0xbcf4d8ce	-0.029888537
37	0x3d85377b	0.06504723
38	0xbd57a6b9	-0.052649233
39	0xbc0ca561	-0.008584351
40	0x3dce5eea	0.10076697
41	0x3c3e1907	0.011602647
42	0xbbf4f849	-0.007475887
43	0xbbd389d6	-0.0064556403
44	0x3d48013f	0.048829313
45	0xbcda0811	-0.026615174
46	0x3c9daf72	0.019248698
47	0xbdc15d0a	-0.09441574
48	0xbd206dd1	-0.03916723
49	0x3bd96086	0.006633821
50	0x3d59915d	0.053117145
51	0xbcdda402	-0.027055744
52	0xbcc2160a	-0.02369215
53	0xbc3e78bb	-0.011625464
54	0x3d64e4a4	0.05588211
55	0xbdc52eda	-0.09628077
56	0xbcb27572	-0.021784518
57	0xbda0a8c8	-0.078446925
58	0x3c932111	0.017960103
59	0x3cc0c162	0.023529712
60	0x3ca2fe08	0.019896522
61	0x3d916327	0.0709899
62	0xbd056206	-0.032564186
63	0x3c8fd2db	0.017556598
64	0xbc2fba09	-0.010725507
65	0x3cf11f4e	0.029433873
66	0x3d3b99fd	0.04580115
67	0xbd9b9508	-0.07596785
68	0xbcb694d5	-0.022287766
69	0xbc8766c6	-0.016528498
70	0xbcdd8cf5	-0.027044753
71	0xbd5dac1e	-0.054119222
72	0x3c3298b9	0.01090067
73	0xbc80b288	-0.01571013
74	0xbc806a8b	-0.015675804
75	0xbd453837	-0.048149314
76	0xbd6cde58	-0.05782923
77	0xbbeb06b1	-0.0071724285
78	0x3c63b0f7	0.013897172
79	0x3cc89cd4	0.024488844
80	0xbd329e8a	-0.043608226
81	0xbce2b166	-0.02767248
82	0x3d147e1e	0.036253087
83	0x3d4f1bf3	0.050563764
84	0x3c2dde1f	0.01061204
85	0x3d43d620	0.047811627
86	0x3ddcc8cc	0.107804865
87	0xbd2019e7	-0.039087202
88	0x3d22304c	0.03959684
89	0xbde2fa0e	-0.110828504
90	0xbdd45638	-0.103680074
91	0x3dac4a89	0.08412654
92	0xbda31117	-0.07962244
93	0xbca1f69d	-0.019770915
94	0x3dcb82cd	0.09937058
95	0xbce038a5	-0.02737076
96	0x3d094a26	0.03351798
97	0x3d86047a	0.065438226
98	0xbd8e2dd0	-0.06942332
99	0xbd36e741	-0.044654135
100	0xbd12d3fc	-0.035846695
101	0x3dd41afe	0.10356711
102	0x3d3a237f	0.045444008
103	0xbd9905da	-0.07471819
104	0x3dba6c31	0.09102667
105	0x3cf8dbef	0.03037831
106	0xbcf8bbe2	-0.030363027
107	0xbd08d86d	-0.033409525
108	0x3d95fa27	0.073231034
109	0xbc2bde55	-0.01049002
110	0xbdba7be9	-0.09105665
111	0x3d1c0437	0.038089957
112	0xbcc535a5	-0.024073431
113	0xbd433e2c	-0.047666714
114	0x3c690e92	0.014224665
115	0xbcdd6f8a	-0.027030725
116	0x3c04171a	0.0080621485
117	0xbcd06b3e	-0.025441762
118	0x3d3c22e1	0.0459317
119	0x3b61aea1	0.0034436362
120	0x3d68c7c2	0.05683113
121	0xbc1ddefe	-0.009635685
122	0xbdb7cca4	-0.08974579
123	0xbbcbe305	-0.006222131
124	0x3cc36192	0.023850236
125	0xbd0994b7	-0.03358909
126	0xbdcb88ce	-0.09938203
127	0xbda463aa	-0.08026822
128	0x3ceb5b31	0.028730007
129	0x3d1d13de	0.038349025
130	0xbcdfe5f4	-0.02733133
131	0xbb184bc6	-0.0023238524
132	0xbda753e3	-0.08170297
133	0xbcd42192	-0.025894914
134	0xbdd9b8ff	-0.10630988
135	0x3d9872d4	0.07443777
136	0xbcc35743	-0.02384532
137	0x3dbe2a78	0.09285444
138	0x3ced02af	0.028931944
139	0xbc4820ce	-0.0122148525
140	0x3d616244	0.055025354
141	0xbd732714	-0.05936344
142	0x3d95cc08	0.073143065
143	0x3db317d2	0.08744778
144	0x3d933e23	0.07189586
145	0x3d5369aa	0.05161444
146	0x3dc4c0eb	0.09607109
147	0xbc32d4ba	-0.010914976
148	0xbdceef50	-0.10104239
149	0xbdd44300	-0.10364342
150	0x3cf7dc61	0.030256452
151	0x3d9c2743	0.07624676
152	0x3d7791c5	0.06044175
153	0x3a8fad28	0.0010961639
154	0xbbee947f	-0.0072808857
155	0xbd374491	-0.044743124
156	0x3cdff209	0.027337091
157	0x3d2ddfa2	0.0424496
158	0xbd9c2473	-0.0762414
159	0xbcc21b65	-0.023694703
160	0xbd1d0396	-0.038333498
161	0x3c3ce18b	0.011528383
162	0x3dac911d	0.08426116
163	0x3dae39d0	0.085071206
164	0x3da530e7	0.08065968
165	0x3cfddc15	0.030988732
166	0x3cdfdffa	0.02732848
167	0x3d51b7f7	0.051200833
168	0xbdbecae7	-0.09316044
169	0xbd832d73	-0.06405153
170	0xbbbe2a6f	-0.0058033983
171	0xbd64dd88	-0.05587533
172	0xbc1312e8	-0.008976676
173	0x3c2fc531	0.010728166
174	0xbd0d485a	-0.034492828
175	0x3c8c90e9	0.017158942
176	0xbd86fb0e	-0.06590854
177	0x3ce0ca18	0.027440116
178	0x3d4c6a3f	0.04990601
179	0x3c310e80	0.01080668
180	0x3da97fa5	0.082762994
181	0xbdb182f7	-0.08667558
182	0x3df8d419	0.121498294
183	0x3cd60995	0.026127616
184	0xbd969f89	-0.07354648
185	0xbd0ae30f	-0.033907946
186	0xbd2f123f	-0.04274201
187	0x3d60c76a	0.054877676
188	0x3a5c73ab	0.000840957
189	0x3db891cf	0.09012186
190	0x3dacb59b	0.08433076
191	0xbd595a16	-0.05306443
192	0xbd2fc761	-0.042914752
193	0x3d9a991e	0.07548736
194	0xbdc65302	-0.09683801
195	0x3998d596	0.00029150833
196	0x3d37cc4d	0.04487257
197	0x3d7fcef9	0.062453244
198	0x3e0a2f3c	0.13494581
199	0xbd9625f5	-0.073314585
200	0xbd2d7795	-0.04235037
201	0xbd8f5035	-0.0699772
202	0x3c532902	0.012888195
203	0xbd54bdb4	-0.051938727
204	0x3d08769c	0.03331624
205	0x3dca16ae	0.09867607
206	0xbc98728a	-0.018609304
207	0x3d57041c	0.052494153
208	0xbd9a5abd	-0.07536838
209	0xbce3e1fe	-0.027817722
210	0xbd4c14ed	-0.049824644
211	0x3c7b08bf	0.015321909
212	0xbc3c916c	-0.011509281
213	0x3d3ff786	0.046866916
214	0xbd14eb74	-0.036357358
215	0x3c5465a0	0.012963682
216	0xbc538488	-0.012910016
217	0xbc1ea1d5	-0.009682138
218	0x3d66527c	0.056231007
219	0x3db9ea02	0.090778366
220	0x3dc98cd5	0.09841315
221	0x3d4b70ac	0.049668
222	0x3c993c26	0.018705439
223	0x3da36b91	0.07979501
224	0x3c635c2e	0.013876958
225	0x3db915d8	0.090373695
226	0xbd170299	-0.03686771
227	0x3c5f3cff	0.013625382
228	0x3ccace35	0.02475653
229	0x3d382ed0	0.04496652
230	0xba06f960	-0.0005148854
231	0x3d9543cd	0.072883226
232	0xbd51b808	-0.051200897
233	0x3def85fe	0.11695479
234	0x3d8f91c5	0.07010225
235	0x3d917de9	0.071040936
236	0xbd19ba7e	-0.03753137
237	0x3d4f2e96	0.050581537
238	0xbdf0b4d8	-0.11753243
239	0xbcda57f9	-0.026653277
240	0x3c7db123	0.015484127
241	0xbd5451ad	-0.051835705
242	0xbd62b580	-0.055348873
243	0x3d41109b	0.047134977
244	0xb8dd27cb	-0.00010545513
245	0xbcdde60c	-0.027087234
246	0xbd9d79c4	-0.076892406
247	0xbc862bbe	-0.01637828
248	0x3da57275	0.080784716
249	0xbd5e089e	-0.054207437
250	0x3d381182	0.04493857
251	0xbd9373d9	-0.071998306
252	0x3de62a9d	0.112385966
253	0xbd89819f	-0.067141764
254	0xbcccf8cb	-0.025020977
255	0xbc4ba76a	-0.012430051

conv1.bias f4 [32]
0	0x3dc6ecb5	0.09713117
1	0xbd53faa3	-0.051752698
2	0x3cec0d34	0.02881489
3	0x3cc46740	0.023975015
4	0x3d388b7c	0.045054898
5	0x3d60083d	0.054695357
6	0xbcc6b7e5	-0.02425761
7	0x3db09a6c	0.08623204
8	0x3dd6226c	0.10455784
9	0x3c94f807	0.018184675
10	0xbd2f5dd6	-0.0428141
11	0xbcc42fe8	-0.023948625
12	0x3c985eaf	0.018599836
13	0x3d3a0ff7	0.04542538
14	0xbc610544	-0.013734166
15	0x3d69f78b	0.05712084
16	0x3dc26aef	0.09493052
17	0xbbad8647	-0.005295548
18	0x3ceb5136	0.028725248
19	0x3c9c70b9	0.01909672
20	0x3dc99a27	0.09843855
21	0x3c030c42	0.007998528
22	0x3d2668ba	0.04062722
23	0x3da5c49e	0.080941424
24	0x3d8da20e	0.06915675
25	0x3df29af2	0.1184596
26	0x3d8741e2	0.06604363
27	0x3b75aa7a	0.0037485645
28	0x3c777cf6	0.015105477
29	0x3d6cfb69	0.05785695
30	0x3dd57bb2	0.10423984
31	0x3d2fff43	0.042968046

conv2.weight f4 [64, 32, 3, 3]
0	0x3d810021	0.06298853
1	0xbda55bdb	-0.08074161
2	0x3d3c6c1f	0.04600155
3	0x3d0c4415	0.034244616
4	0xbd9520be	-0.07281636
5	0xbc7c6e75	-0.015407194
6	0x3d038d08	0.03211692
7	0xbd265a81	-0.040613655
8	0x3cc5ec6d	0.024160588
9	0x3d823f4c	0.06359729
10	0xbc7542e0	-0.0149695575
11	0x3d49b9ce	0.049249463
12	0x3d08b0b6	0.03337165
13	0x3d0506dd	0.03247725
14	0xba92645d	-0.0011168827
15	0x3ce1e895	0.027576724
16	0x3cbe1c8b	0.02320697
17	0xbdc80204	-0.097660094
18	0xbd6254e9	-0.055256758
19	0x3d48dc34	0.049038127
20	0x3d31b921	0.043389443
21	0xbd8132c2	-0.063085094
22	0x3d6fb165	0.058518786
23	0x3c55e50f	0.0130551
24	0xbd33d113	-0.04390056
25	0x3d6a4b71	0.057200853
26	0xbb07c7d6	-0.0020718477
27	0xbd29147f	-0.041279312
28	0x3bd5e22f	0.0065272073
29	0x3d2d485a	0.042305328
30	0xbc2ee66e	-0.010675056
31	0x3d19c4fa	0.037541367
32	0xbd0a8bf4	-0.033824876
33	0xbceec80c	-0.029148124
34	0xbc40dfd2	-0.011772113
35	0xbd3cae32	-0.046064563
36	0xbdf89222	-0.121372476
37	0x3c283bff	0.01026821
38	0xbda75a94	-0.08171573
39	0xbd8719ec	-0.06596741
40	0x3d811fe7	0.06304913
41	0xbd8a7752	-0.0676104
42	0xbc48211a	-0.012214923
43	0x3cbb0f41	0.022834422
44	0xbd5b6364	-0.053561583
45	0xbc2abe51	-0.0104213515
46	0x3cc3fabb	0.023923269
47	0x3d942cf4	0.07235137
48	0x3be6bde2	0.0070416788
49	0x3c0b0c05	0.008486752
50	0x3d14b443	0.036304723
51	0x3c151830	0.009100005
52	0xbc53b669	-0.012921908
53	0xba95fac7	-0.0011442535
54	0xbd5d14ec	-0.05397503
55	0xbd19e620	-0.03757298
56	0x3d5ef110	0.054429114
57	0x3c4b3431	0.01240258
58	0x3d76a992	0.06022031
59	0xbcd9ad8b	-0.02657201
60	0xbbfe1c59	-0.007754844
61	0x3da55a12	0.0807382
62	0xbd5142ab	-0.05108897
63	0xbd99ddec	-0.07513031
64	0xbd2609e4	-0.040536776
65	0x3ceca9b8	0.028889522
66	0x3d286a8e	0.041117243
67	0x3cdfc2ce	0.02731457
68	0x3c0590c2	0.008152189
69	0x3bdd4efc	0.0067538004
70	0xbb3b1e8a	-0.0028552138
71	0x3c09c9cf	0.008409931
72	0x3d5d4ff8	0.054031342
73	0x3d549362	0.051898368
74	0x3c812810	0.015766174
75	0x3d719d15	0.058987696
76	0xbc8d0731	-0.017215343
77	0xbbb28f4a	-0.0054492103
78	0x3d4defd1	0.050277535
79	0xbc913a42	-0.017727975
80	0xbd2829a5	-0.04105534
81	0x3c7a87ae	0.015291138
82	0xbd724f68	-0.05915776
83	0x3d1dcc6e	0.038525037
84	0xbcaf50c0	-0.02140081
85	0x3d3cfc9d	0.04613935
86	0x3c30063f	0.010743677
87	0x3c26a878	0.010172002
88	0x3d204565	0.03912868
89	0x3d8ae995	0.067828335
90	0xbccb6741	-0.024829509
91	0x3d7d3483	0.061817657
92	0xbd0485e2	-0.032354243
93	0x3cd031e9	0.025414424
94	0x3c3d0d72	0.01153885
95	0x3b7f139d	0.0038921603
96	0xbb758cd0	-0.0037467964
97	0x3cf01acf	0.029309658
98	0x3c959004	0.018257149
99	0xbcc5542d	-0.02408799
100	0xbd1f011a	-0.03881941
101	0xbd13b727	-0.03606334
102	0xbc220131	-0.009887979
103	0xbc11b03d	-0.008892116
104	0xbbfd32ee	-0.0077270186
105	0x3c905bfc	0.017621987
106	0xbce06bfa	-0.027395237
107	0xbd2e6436	-0.042576037
108	0x39da8c3c	0.00041684683
109	0x3d9d21bf	0.07672452
110	0xbd30839a	-0.043094255
111	0x3d379da2	0.044828065
112	0xbd2f584d	-0.04280882
113	0x3b57b9c7	0.0032917128
114	0x3c0157e8	0.007894494
115	0x3b598d53	0.0033195808
116	0xbc002229	-0.007820644
117	0xbc53db38	-0.012930684
118	0x3cd3ef0e	0.025870826
119	0xbcd31139	-0.025765048
120	0x3d1ca8d0	0.03824693
121	0x3c1d96d4	0.00961848
122	0x3d971b16	0.07378213
123	0xbd0c75bd	-0.03429197
124	0xbd77e452	-0.060520478
125	0x3ca11bb6	0.019666534
126	0x3d811349	0.063025065
127	0x3cdae990	0.0267227
128	0xbcf4dc12	-0.029890094
129	0x3da0ca14	0.07851043
130	0x3d84e452	0.06488861
131	0xbd9d3b83	-0.076773666
132	0xbc37d007	-0.011219031
133	0x3c79d516	0.015248558
134	0xbcb2eeab	-0.021842321
135	0x3d5cd7bc	0.053916678
136	0xbd2a654f	-0.04160052
137	0x3d7eafbd	0.062179316
138	0x3cd2985b	0.025707414
139	0x3d8b005c	0.06787178
140	0xbcc98e7d	-0.024604077
141	0xbd35669e	-0.044287317
142	0x3d3f5c06	0.04671862
143	0x3c2dc625	0.010606323
144	0x3ba9e00c	0.005184179
145	0x3cc58986	0.024113428
146	0x3ccc772b	0.024959167
147	0x3d51989d	0.051170934
148	0x3ccc471d	0.024936253
149	0x3ccbdfa4	0.024886914
150	0xbcaf1e5d	-0.021376783
151	0x3c09b2f9	0.008404487
152	0x3d013e15	0.031553347
153	0x3d386c7e	0.04502534
154	0xbd2594f3	-0.040425252
155	0xbcb30440	-0.021852612
156	0xbc0d7658	-0.008634172
157	0x3cceab49	0.02522816
158	0x3d88f3bb	0.06687113
159	0x3d5fbfd9	0.05462632
160	0x3d4f920b	0.050676387
161	0xbbabd322	-0.005243675
162	0xbd4b5561	-0.04964197
163	0xbd7ae16d	-0.06125014
164	0x3d67bca9	0.056576405
165	0xbc82bb1e	-0.015958365
166	0xbd607c36	-0.054805957
167	0x3d804814	0.06263748
168	0xbb25193a	-0.0025192038
169	0xbc028476	-0.007966151
170	0x3d80c07e	0.06286715
171	0x3d9cc6ba	0.076550916
172	0x3c9d7a01	0.019223215
173	0xbd174e07	-0.036939647
174	0xbc06b1f3	-0.008221137
175	0xbd315170	-0.043290555
176	0x3d800fb8	0.06252998
177	0x3d8e0159	0.06933851
178	0xbce8a3a9	-0.028398352
179	0xbd00a6a6	-0.03140893
180	0xbd7b1b99	-0.061305616
181	0x3cbad0fb	0.022804728
182	0xbbd4c721	-0.0064934646
183	0xbd25d1b1	-0.04048318
184	0xbd2d589a	-0.042320825
185	0x3d1c1b6e	0.038112096
186	0xbd48cbd8	-0.049022526
187	0xbd07d471	-0.033161584
188	0xbc86ebfb	-0.016469946
189	0x3c84176f	0.016124455
190	0x3cca9c71	0.0247328
191	0x3d7fd5d2	0.062459774
192	0x3d8dfbdb	0.06932803
193	0x3cb0c0a6	0.021576237
194	0x3d2978b3	0.041374873
195	0xbd477ff6	-0.048706017
196	0xbcd58f11	-0.026069196
197	0xbd8a4495	-0.06751362
198	0xbd6585d2	-0.056035824
199	0xbd8f7d25	-0.07006291
200	0xbc4b99a5	-0.012426768
201	0x3be7d84c	0.007075345
202	0x3c0dc818	0.008653663
203	0xbd0a19eb	-0.033716124
204	0xbca974f0	-0.020685643
205	0x3d225d96	0.03964003
206	0xbc0425b1	-0.008065627
207	0x3cc9f2d8	0.02465193
208	0xbac4f43b	-0.00150264
209	0x3cbec1c0	0.023285747
210	0x3c8bf60c	0.017085098
211	0x3d3aeaef	0.045634206
212	0x3c5180f2	0.012787091
213	0xbdcf5957	-0.10124462
214	0x3c95016c	0.018189155
215	0x3d4308b9	0.04761574
216	0xbd1ee0cd	-0.038788605
217	0x3dad7e80	0.084713936
218	0xbd2f3e98	-0.042784303
219	0xbc6fb738	-0.014631085
220	0x3b9a3785	0.0047063255
221	0xbd84ce6c	-0.06484684
222	0x3d439c07	0.04775622
223	0x3bc499f2	0.005999797
224	0x3da877da	0.08225985
225	0xbd441d60	-0.047879577
226	0x3c78b28c	0.015179288
227	0xbd8bb62e	-0.068218574
228	0x3d67104d	0.05641203
229	0xbba50660	-0.0050361603
230	0xbd58ca71	-0.05292744
231	0x3d1d4760	0.038398147
232	0x3cf0b0fc	0.029381268
233	0xbd45842c	-0.048221752
234	0xbd34c04b	-0.044128697
235	0xbd332bcf	-0.04374295
236	0x3d9740ad	0.07385383
237	0x3b81dc12	0.003963002
238	0xba29d380	-0.00064783543
239	0x3c3a2aac	0.011362713
240	0xbd856d16	-0.06514947
241	0xbbbd2bfc	-0.0057730656
242	0xbccedd9f	-0.025252162
243	0x3d093f4d	0.033507634
244	0x3d452980	0.04813528
245	0xbc1c88cc	-0.009554099
246	0xbd2e0e34	-0.042494014
247	0x3bbdd263	0.0057929023
248	0xbc5cc5dd	-0.013474909
249	0x3d4c3c71	0.04986233
250	0x3bd46eba	0.006482926
251	0xbcc265ee	-0.023730244
252	0x3d03031e	0.031985395
253	0xbc55ad8a	-0.013041863
254	0x3d3fb288	0.04680112
255	0xbd62c3e2	-0.05536259

conv2.bias f4 [64]
0	0x3db39f7e	0.08770655
1	0xbd1477c3	-0.036247026
2	0xbc5b9a02	-0.013403418
3	0x3d98ab09	0.07454497
4	0x3afec697	0.0019437846
5	0xbc179f97	-0.009254358
6	0x3c88a00b	0.016677877
7	0xbcb663ae	-0.022264328
8	0xbcdb0336	-0.02673493
9	0x3d10ff2b	0.035399597
10	0x3d988233	0.074467085
11	0xbce4532e	-0.027871694
12	0x3cea63a8	0.028611973
13	0x3b8c6933	0.0042850017
14	0x3da0ced1	0.07851947
15	0x3d131715	0.035910685
16	0x3d4cd643	0.050009023
17	0xbd0705c0	-0.032964468
18	0x3ce9d1ed	0.028542483
19	0xbcd90a7e	-0.02649426
20	0x3d11e525	0.03561892
21	0x3c930d0b	0.017950555
22	0xbb3f6148	-0.0029202271
23	0x3afdecb0	0.0019372907
24	0x3c081c9f	0.008307605
25	0xbcf17b9e	-0.02947789
26	0x3cfe9dd4	0.031081118
27	0xbc336540	-0.010949433
28	0xbcedf528	-0.029047564
29	0xbcc0aa24	-0.02351863
30	0xbd080ba7	-0.033214238
31	0x3d926c66	0.071495816
32	0xbc2b742c	-0.010464709
33	0x3d70ec11	0.05881888
34	0x3d7a9559	0.061177585
35	0x3caa5708	0.020793453
36	0x3cf8452c	0.030306421
37	0x3d109fc1	0.035308603
38	0x3d92137c	0.071326226
39	0x3d20576f	0.039145883
40	0xbd095d97	-0.03353652
41	0xbce2104b	-0.02759566
42	0x3d879328	0.06619865
43	0x3d7b832e	0.0614044
44	0x3b158d7a	0.0022819922
45	0x3d23bc3d	0.03997444
46	0x3c467a8b	0.012114177
47	0x3dd1b02d	0.10238681
48	0xbcc29b19	-0.023755597
49	0x3cdd61c2	0.027024154
50	0x3d690096	0.056885324
51	0xbc4cfcbc	-0.012511428
52	0xbc8a3fc9	-0.016876118
53	0x3b9dbfd5	0.004814128
54	0x3d66124d	0.056169797
55	0xbc2b6135	-0.010460188
56	0xbd251043	-0.04029871
57	0x3d10ee22	0.03538335
58	0x3bc1300e	0.005895621
59	0x3d48387d	0.048881996
60	0xbd1c3b86	-0.038142703
61	0x3d6d5d2e	0.05795019
62	0x3d49bbb4	0.049251273
63	0xbc9f2693	-0.019427573

fc2.weight f4 [16, 1024]
0	0xbac6f6e3	-0.0015179779
1	0xbca6cadb	-0.0203604
2	0x3d712ab2	0.058878608
3	0x3cd93e88	0.026519075
4	0xbbe57f5b	-0.0070037073
5	0xbcdf54ed	-0.027262175
6	0xbb5e4b65	-0.003391945
7	0x3c0b0c38	0.0084868
8	0xbd046421	-0.032322053
9	0xbd431dfa	-0.04763601
10	0xbd4c362b	-0.049856346
11	0xbc890bae	-0.016729202
12	0xbc5ae9cf	-0.013361408
13	0xbcdc0196	-0.026856225
14	0xbd1ebc7f	-0.038753983
15	0xbbef951e	-0.0073114773
16	0xbd8120f1	-0.06305111
17	0xbc53386b	-0.012891869
18	0x3bdca9dd	0.0067341165
19	0xbd1ac9c4	-0.037790075
20	0x3cd460a5	0.02592499
21	0x3c75dbee	0.015006049
22	0x3ce489c7	0.027897729
23	0x3cca0e60	0.024665058
24	0xbd777a65	-0.06041946
25	0x3b1a76d5	0.0023569365
26	0x3d3c4090	0.04596001
27	0x3c9f2ea7	0.019431425
28	0xbd019f08	-0.031645805
29	0x3cbb8452	0.022890244
30	0x3d155a72	0.03646321
31	0xbdca2954	-0.09871164
32	0x3ca749c4	0.020420916
33	0xbbb4ba40	-0.005515367
34	0x3d149744	0.03627707
35	0xbcf534df	-0.029932437
36	0x3d2544f5	0.040348966
37	0xbcd54c40	-0.026037335
38	0x3d09ce79	0.033644173
39	0xbcb50f7f	-0.022102116
40	0xbc0e68c8	-0.008691974
41	0x3cf7ae54	0.030234493
42	0x3c091f6c	0.008369308
43	0x3d04091c	0.03223525
44	0x3bf68a20	0.00752379
45	0x3c868755	0.016421953
46	0x3c150395	0.009095092
47	0xbd7e7055	-0.062118847
48	0x3c87f1cd	0.016594792
49	0x3d094f06	0.03352263
50	0xbd5b9ccf	-0.05361634
51	0xbc1f32e3	-0.009716722
52	0xbd1282f6	-0.035769425
53	0xbc8b2ef9	-0.016990172
54	0xbc7d6f8c	-0.015468489
55	0xbc519ca9	-0.012793698
56	0xba831e4b	-0.0010003535
57	0x3d19f0fd	0.03758334
58	0x3d2abdb3	0.041684818
59	0xbd10246c	-0.035190985
60	0xbd0ba3f1	-0.034091894
61	0xbcdd2dca	-0.026999373
62	0xbc37a2e7	-0.011208273
63	0xbcaa46f6	-0.02078579
64	0xbcddafa1	-0.027061285
65	0x3c17549e	0.009236483
66	0xbdb8f1b0	-0.09030473
67	0x3be002f8	0.0068362914
68	0x3d4cb01a	0.04997263
69	0xbb63f984	-0.0034786174
70	0xbc048531	-0.008088396
71	0xbd00fb20	-0.03148949
72	0x3d15de12	0.036588736
73	0x3c42db46	0.011893099
74	0xbd05753a	-0.0325825
75	0x3ba977e9	0.005171765
76	0x3b211033	0.0024576306
77	0xbcac804d	-0.021057272
78	0x3d1c757e	0.038197987
79	0x3c8c3332	0.017114256
80	0x3c873ade	0.016507562
81	0xbcfe13e6	-0.031015348
82	0x3d69a346	0.057040475
83	0xbcca428e	-0.024689939
84	0x3d2dbf8d	0.042419005
85	0xbc9bf35e	-0.019036945
86	0x3c5facca	0.013652036
87	0x3c5309bd	0.01288074
88	0x3ca726ea	0.020404298
89	0x3caf2c12	0.021383319
90	0x3d04c8be	0.032418005
91	0x3ce845a0	0.028353512
92	0xbd0f83f1	-0.03503794
93	0xbcc91ea1	-0.024550738
94	0xbcabe903	-0.020985132
95	0xbc64fbee	-0.01397608
96	0x3ce71c71	0.028211804
97	0x3d70d575	0.05879732
98	0x3cbba84d	0.0229074
99	0x3ce7c27f	0.028290985
100	0xbb29d132	-0.0025912044
101	0xbbecd176	-0.007227118
102	0x3c7db4c2	0.015484991
103	0x3ceb3e21	0.028716149
104	0x3d6348f6	0.055489503
105	0x3d4053f3	0.04695506
106	0xbd8e4c07	-0.06948095
107	0x3c659267	0.014011956
108	0xbc85e577	-0.016344769
109	0xbc24c63a	-0.0100570265
110	0xbd896928	-0.0670951
111	0xbc6b9927	-0.014379776
112	0x3db981ae	0.090579376
113	0xbd838657	-0.06422108
114	0xbd5a031f	-0.053225633
115	0x3ca1ee77	0.01976703
116	0xbc069d13	-0.00821616
117	0xbe1a615b	-0.150762
118	0xbc921062	-0.017830078
119	0xbbe6f869	-0.0070486558
120	0xbd042966	-0.032266043
121	0xbd647c75	-0.055782754
122	0xbde6609f	-0.11248898
123	0x3ca32883	0.019916778
124	0xbd8e730b	-0.069555365
125	0xbd2effb4	-0.042724326
126	0x3d1fe5bf	0.039037462
127	0xbd84c9dc	-0.06483814
128	0x3c25baf8	0.010115378
129	0x3d07b9f0	0.03313631
130	0x3c2b5601	0.010457517
131	0xbd0ea567	-0.03482571
132	0xbbffbb2f	-0.0078042964
133	0x3ccabfa6	0.024749588
134	0x3c44da25	0.0120149
135	0x3d83cfb7	0.06436103
136	0x3ca008ad	0.019535387
137	0xbc850f56	-0.016242664
138	0xbcee12f7	-0.029061778
139	0x3d12b1aa	0.035813965
140	0xbd83f806	-0.06443791
141	0x3c5329d9	0.012888395
142	0xbd602e26	-0.05473151
143	0xbc7655f9	-0.015035146
144	0x3d2865e8	0.04111281
145	0x3c2828a1	0.010263593
146	0xbca22531	-0.019793125
147	0x3d26f228	0.040758282
148	0xbc6243e5	-0.013810133
149	0x3d140814	0.036140516
150	0xbc1999f0	-0.0093750805
151	0x3d2803db	0.0410193
152	0xbba0d7ca	-0.0049085366
153	0x3cee8f26	0.029120993
154	0xbc70fea3	-0.014709148
155	0xbb4ed846	-0.0031562014
156	0xbc8f0e54	-0.017462887
157	0x3b82892c	0.0039836373
158	0x3b9c1d26	0.004764217
159	0xbbdaafa9	-0.0066737724
160	0x3d34b107	0.04411414
161	0xbd1b9e87	-0.03799298
162	0xbd37f02a	-0.044906773
163	0x3c0b0a98	0.008486412
164	0x3ccffef5	0.025390128
165	0x3c21c4ea	0.009873608
166	0xbd1f9c67	-0.038967516
167	0xbb1a8306	-0.0023576631
168	0x3c540c65	0.012942408
169	0x3d416d49	0.047223363
170	0x3d315a63	0.04329909
171	0xbca6cbfd	-0.020360941
172	0x3c4ee816	0.012628576
173	0x3a33e45a	0.0006862335
174	0xbcfab495	-0.030603686
175	0xbce045ad	-0.027376974
176	0x3d89d382	0.06729795
177	0x3cf9acec	0.030477963
178	0x3cbf1a51	0.023327978
179	0xbc1e51bd	-0.009663043
180	0x3d28e5f3	0.04123492
181	0xbcfb4174	-0.030670859
182	0x3d65b934	0.056084827
183	0xbd1daf1e	-0.038497083
184	0x3d3b63dd	0.045749534
185	0x3c92de8a	0.01792838
186	0xbca04348	-0.019563332
187	0x3c83c053	0.016082918
188	0x3c21a6a3	0.009866389
189	0x3c93f14f	0.0180594
190	0xbc8be1ee	-0.017075505
191	0x39edbd30	0.00045345118
192	0xbce59e41	-0.028029563
193	0xbd046ecf	-0.032332238
194	0x3c703c92	0.014662879
195	0x3d2092d3	0.039202522
196	0x3cb9a877	0.022663338
197	0x3d2e357e	0.042531483
198	0xbc69c07a	-0.014267081
199	0x3c18d211	0.0093274275
200	0x3c23682c	0.009973567
201	0xbd0362dc	-0.0320767
202	0xbd7f5376	-0.062335454
203	0xbbbc3627	-0.00574376
204	0x3c1543c1	0.009110392
205	0xbc91f778	-0.017818198
206	0xbe241014	-0.16021758
207	0xbd4f026b	-0.050539415
208	0xbce52c76	-0.027975302
209	0xbcd246a3	-0.025668448
210	0xbc972a98	-0.018452927
211	0x3c9173ca	0.017755408
212	0x3d392893	0.04520471
213	0xbc8623c4	-0.016374476
214	0xbc01dfdf	-0.00792691
215	0x3a2988d3	0.0006467227
216	0xbd2bf0d4	-0.04197772
217	0xbc49840f	-0.012299552
218	0xbd219604	-0.039449707
219	0x3c66d04a	0.014087746
220	0x3d9990b9	0.07498307
221	0xbbadef65	-0.005308079
222	0x3c5afdce	0.013366176
223	0xbd50b21e	-0.050951116
224	0xbbcb176b	-0.00619786
225	0x3b884655	0.004158775
226	0x3d99bf4f	0.07507192
227	0xbd489758	-0.048972458
228	0xbdb1d9f5	-0.0868415
229	0x3cd8f2b7	0.026482923
230	0x3c927942	0.017880086
231	0xbd0150f4	-0.031571344
232	0x3bf288a6	0.0074015437
233	0xba793c58	-0.0009507588
234	0x3c80ebad	0.015737379
235	0xbcddc619	-0.027072
236	0x3d400177	0.046876397
237	0x3d10b364	0.03532733
238	0x3cb1fdbf	0.02172744
239	0xbc26927b	-0.01016676
240	0x3d54e1cf	0.05197316
241	0xbd3aa47e	-0.04556703
242	0x3cbb2a07	0.022847189
243	0x3baabfef	0.0052108685
244	0xbd4fcfe1	-0.05073536
245	0xbd3dadca	-0.046308316
246	0xbcb22571	-0.02174637
247	0x3d28654b	0.041112226
248	0x3c11c2c0	0.00889653
249	0xbc8510fb	-0.016243448
250	0xbc0aab9e	-0.008463768
251	0x3cb3c288	0.021943346
252	0x3ca36f7e	0.019950625
253	0xbd23469f	-0.03986227
254	0xbc8b496f	-0.01700279
255	0x3d17785b	0.036980014

fc2.bias f4 [16]
0	0xbc4146bb	-0.011796649
1	0x3ced88ae	0.028995838
2	0x3c871b92	0.016492639
3	0x3d2988e5	0.04139032
4	0x3c0e0940	0.008669198
5	0xbce2db7e	-0.027692553
6	0x3c62447f	0.013810276
7	0xbcc6562a	-0.024211008
8	0xbcf60b8f	-0.030034808
9	0xbd16af50	-0.036788285
10	0x3ce995ef	0.028513877
11	0x3c1f6ce0	0.009730548
12	0x3bd5e272	0.0065272385
13	0x3b9d61af	0.0048029046
14	0x3cc2751d	0.023737485
15	0xbb5ed15e	-0.0033999304
