tactile_model/model/best_inverse_model.pt (torch, 167311 bytes, 8 tensors)

fc1.weight f4 [1024, 16]
000000 89 e1 85 3e 14 d9 68 bd dc 31 1d be e8 f7 27 3e
       0.26148632 -0.056847647 -0.15351051 0.16403162
000010 f4 81 47 be ef 47 8a bd 3c 25 d2 3d 88 93 82 be
       -0.19483167 -0.067520015 0.10261008 -0.25503182
000020 4c 4d 23 be 60 f6 97 bc 80 9e 1a be 7e cd 49 bd
       -0.15947455 -0.018550098 -0.15099525 -0.04926824
000030 87 7d f5 3d 92 d2 8e bd 6e 1f 2b be 94 50 e4 3d
       0.11986833 -0.06973757 -0.16711208 0.111481816
000040 e2 ef c2 bc 9a bf 35 be f3 b2 37 3e 6a 61 73 3d
       -0.023796026 -0.17748871 0.17939357 0.059419073
000050 ac e6 37 3e 54 29 d1 3d 4d 92 72 be 9a d7 3d 3e
       0.17959088 0.10212961 -0.23688622 0.18539277
000060 85 d7 82 3e 9e c6 54 3e ee 90 1f 3e 8a 59 a5 bc
       0.25555053 0.20778891 0.1558263 -0.020184297
000070 d4 ca 62 3c 77 12 d4 3d 9d c4 54 be 15 6b ad bd
       0.013842303 0.103550844 -0.20778127 -0.0846769
000080 ff 86 a4 3d 20 80 72 be de b9 13 3e af a4 38 3e
       0.08033561 -0.23681688 0.14426371 0.18031572
000090 ca d2 67 3e 97 b7 51 3e 42 d8 29 be e7 6a f7 3d
       0.22639003 0.2048019 -0.16586402 0.12080937
0000a0 65 a0 0b 3e cb 58 80 3e 31 f4 63 3e 5c df 3d 3e
       0.13635404 0.25067744 0.2226112 0.18542236
0000b0 75 46 51 3e 0b 13 aa 3d 1e ef 0e 3e 98 bd 8e 3d
       0.20437033 0.083044134 0.13958403 0.06969756
0000c0 e8 22 b6 bd 41 c3 b7 3c e4 80 25 3e 87 16 67 be
       -0.088933766 0.022431972 0.16162449 -0.22567187
0000d0 c2 fd e8 3c eb b4 80 bd 7f 10 50 be 92 8a 80 bd
       0.028441314 -0.06284507 -0.20318793 -0.0627643
0000e0 95 9c 84 3a 10 17 67 3e ab 95 d4 bd 93 37 14 be
       0.0010117466 0.22567391 -0.103801094 -0.14474325
0000f0 ee 41 55 3e d8 02 f8 bd bf 07 47 be 3a 91 01 3e
       0.20825931 -0.121099174 -0.19436549 0.12653056
000100 80 b6 1b be 04 ae 38 3c 8d a0 eb 3d 09 7b 11 be
       -0.15206337 0.011271957 0.11505232 -0.1420709
000110 2c 7f 76 be b8 9a 6f be 23 dc 75 3d 92 d1 0f be
       -0.2407195 -0.23398864 0.06002439 -0.14044788
000120 07 ca 0e 3e e0 be 74 3e 42 aa 58 be 5b 42 ea bd
       0.13944255 0.23900938 -0.21158698 -0.114384376
000130 b6 9a 8a 3e ee 45 0b 3d 85 ad 3d 3e 5c de b3 bd
       0.2707116 0.034002237 0.18523224 -0.08782646
000140 6b 92 81 3e f6 ba 7e 3c 9c 6c 76 be 17 e4 2e 3e
       0.2530702 0.015547505 -0.24064869 0.17079197
000150 5f 63 2f be 5e d2 4e be 04 74 0b 3d c5 39 1b 3e
       -0.17127751 -0.20197436 0.034046188 0.15158756
000160 05 52 cb bc 32 22 1d bd bc fc 0b be 91 aa 08 3e
       -0.024819383 -0.03836269 -0.1367063 0.13346316
000170 ff b7 08 3e d6 bf 93 3d 84 fe 1c be 7d 87 c9 bc
       0.13351439 0.07214324 -0.15331465 -0.024600739
000180 da 71 ec 3d 29 16 2c 3e 6c ae 83 3d 45 98 30 3e
       0.11545153 0.16805328 0.06429753 0.17245586
000190 5d 21 fe bc 4d a0 5d 3d b7 39 5a be e4 d4 ee 3d
       -0.031021768 0.054107953 -0.21311079 0.116616994
0001a0 7d 7a 1e be 5c 61 15 be fd 6a 7f bd 9a 72 15 be
       -0.15476413 -0.14587921 -0.06235789 -0.14594498
0001b0 67 0e 57 be 11 8f 60 3d fa 80 34 3e 3b b9 05 3d
       -0.21001588 0.05482394 0.17627326 0.032647353
0001c0 e0 cc a7 bd 13 8e 7b be 0e b0 62 3e 0a 7a 08 3d
       -0.08193374 -0.24565916 0.22137472 0.03331951
0001d0 64 57 4c be 62 db f6 bd dc 19 3d 3b 93 03 5a 3e
       -0.19955212 -0.12053563 0.0028854525 0.21290426
0001e0 4a a3 18 be eb a1 d3 bd a7 99 e0 3d 73 55 19 be
       -0.1490604 -0.10333618 0.10966807 -0.14974003
0001f0 64 4d 78 3e 20 58 47 be b0 38 72 be 95 2e 03 bd
       0.24248272 -0.19467211 -0.23654437 -0.032026846
000200 38 87 69 be f4 cd 27 be c4 e8 a4 bb 1a 5e 63 3e
       -0.22805488 -0.16387159 -0.0050326306 0.22203866
000210 a4 ea 68 be 93 4b 83 be 75 fc e8 bd 22 40 b4 3d
       -0.22745758 -0.25643596 -0.11376277 0.08801295
000220 13 aa a8 bd df 56 03 3e ad d3 56 3e d3 a6 31 be
       -0.08235564 0.12826107 0.20979185 -0.17348795
000230 dc 71 f6 bd 44 83 e3 3d df 08 00 3e 87 04 06 be
       -0.12033436 0.11109021 0.12503384 -0.13087665
000240 d8 5c 44 3e 74 bf f2 bd 67 c4 ab 3c 0b ba 59 bd
       0.19176042 -0.11852923 0.020967675 -0.05315594
000250 8f d2 54 bd 06 e2 11 be 89 d6 3e bc d9 65 e7 3d
       -0.051958617 -0.14246377 -0.011647829 0.11298723
000260 a0 4e 0b be fe 79 ce bc ce e2 66 be e4 93 72 be
       -0.13604212 -0.025204655 -0.22547457 -0.23689228
000270 a6 cb ae 3e f1 c1 30 3d 72 d2 d1 3d d9 89 df 3c
       0.34139746 0.043153707 0.102452174 0.02728741
000280 e3 e7 06 be c2 e5 b2 bd e1 09 60 be fa 7a 51 3e
       -0.13174395 -0.08735229 -0.21878769 0.20457068
000290 d7 ac 9c bd 9a ce f0 3d 81 f6 07 3e bd 37 b3 3d
       -0.07650154 0.11758156 0.13277628 0.087508656
0002a0 d3 84 2d be c2 8e 7d be 8a 71 1a be 10 3b 80 3e
       -0.169452 -0.24761489 -0.15082374 0.2504506
0002b0 21 1b 3f 3e 7a 16 fa bd 24 bd 3d bc 46 06 1f 3e
       0.18662693 -0.12211318 -0.011580739 0.15529737
0002c0 61 81 8a 3d b0 34 16 3e d3 d8 9a 3d eb bc 2a 3e
       0.06762958 0.14668536 0.07560887 0.16673629
0002d0 d8 2e 51 3d 6a 62 18 be 06 79 3e 3e c2 0b 68 3e
       0.051070064 -0.14881292 0.18600854 0.22660735
0002e0 e7 88 90 bd 07 11 17 3e 61 c6 ef bc 42 ac 6e be
       -0.07057362 0.14752589 -0.0292694 -0.23307899
0002f0 84 cd 62 be 77 13 8a 3e 6e 50 f7 bc 93 cb bf 3b
       -0.2214871 0.26967975 -0.030189719 0.0058531254
000300 e4 73 23 3e 7d ed 59 be 03 c1 5a 3e a8 42 84 3e
       0.15962178 -0.21282001 0.2136269 0.25832105
000310 2a c8 44 3e ce 02 0c bd f4 65 b4 bd 88 ed bb 3d
       0.19216982 -0.034182362 -0.088085085 0.09176165
000320 a0 b0 4f be 4e 27 77 3d f3 16 77 be ff e4 2e be
       -0.20282221 0.06034022 -0.24129848 -0.17079543
000330 bc 2c 0c 3e 50 e1 45 bd 10 c7 26 3d 43 16 72 3d
       0.1368894 -0.048310578 0.040717185 0.05910326
000340 3b ba 35 bd 18 5d db 3d c8 4b 07 be 43 00 64 be
       -0.044367056 0.107111156 -0.13212502 -0.22265725
000350 5a 98 93 3d 91 b0 61 be 99 ab 4c 3d c2 6c 8b bd
       0.07206793 -0.22040011 0.049968336 -0.06807853
000360 0a e0 c9 bd d1 33 71 3e 55 ea 51 be 3d 6b 9c bd
       -0.09857185 0.23554923 -0.20499547 -0.076376416
000370 f1 d6 ec 3d 0b fe e5 bd bd 1b df bd 75 73 c2 bd
       0.11564434 -0.112300955 -0.108939625 -0.09494678
000380 d9 10 b3 3d 66 d4 c9 3d 4f 71 32 3e ac ad a7 3d
       0.08743448 0.09854965 0.17426036 0.08187422
000390 74 7d 58 3e fc 87 34 3e 5a 45 a5 bd b9 af 1c be
       0.21141607 0.17629999 -0.080698684 -0.15301408
0003a0 91 82 c1 3d e7 e1 db 3c 4d 4f a2 bd 52 6b 9e 3d
       0.09448732 0.026841117 -0.07925282 0.077353135
0003b0 20 a4 62 3e fd 97 c0 3d 89 e3 48 3e f1 22 38 3e
       0.22132921 0.094039895 0.19618048 0.17982079
0003c0 77 36 98 be ad 8c 82 3e d1 ea 42 3e 66 9b 10 3e
       -0.29729053 0.25497952 0.19034888 0.1412178
0003d0 a2 54 80 bd b4 e9 ca 3d 06 ca 76 3e 98 e8 11 be
       -0.062661424 0.099078566 0.24100503 -0.14248884
0003e0 c1 fd 70 3d 4c 5f d9 3c e0 34 70 3d 3c 92 15 3e
       0.05883575 0.026534699 0.058644176 0.14606565
0003f0 20 b8 79 3e 05 3c c7 3d 8f e8 a2 bc 24 12 2c bd
       0.24386644 0.09728245 -0.019886283 -0.042009488

fc1.bias f4 [1024]
000000 40 ef fa 3d b8 d8 83 3c 58 bf 5d be 7f 62 75 3e
       0.122526646 0.01609455 -0.21655023 0.23963355
000010 22 05 b6 bb fd c5 cb be cd eb 79 3d a5 bd 8c be
       -0.005554811 -0.3979949 0.061015893 -0.27488437
000020 3b 2b 37 be 07 74 45 be 25 99 fb bd 7c 13 85 3e
       -0.17887585 -0.19282542 -0.122850694 0.25991428
000030 a1 ba 10 3e 5f c2 62 3c 53 08 f1 bc 0f e3 e6 bc
       0.14133693 0.013840287 -0.029422915 -0.028184442
000040 e1 35 7c bd d4 6a 58 3e e0 be 99 3e e8 ae dd 3d
       -0.06157482 0.21134502 0.3002844 0.10824376
000050 7e 1f 83 3e c2 c2 cc 3d 95 66 91 3d 6a 88 d9 3b
       0.25609964 0.099980846 0.07099644 0.0066385763
000060 d5 a5 2d be 43 1a 3e 3e dc 68 34 3e 62 82 21 3e
       -0.16957791 0.18564706 0.17618126 0.15772393
000070 5d 78 91 be c2 4f 61 be 7d 83 2d 3e 59 a0 8a 3e
       -0.28412142 -0.22003081 0.1694469 0.2707546
000080 ee 58 80 3e 09 d9 2e be 5d 01 02 be 91 81 a0 be
       0.25067848 -0.1707498 -0.12695833 -0.3134885
000090 ff 64 e2 3d 78 52 31 be 21 5f 2e 3e 59 63 95 be
       0.1105442 -0.17316616 0.17028476 -0.2917736
0000a0 aa bb 7b be 63 94 bd 3d 63 33 8f be 8e be 85 be
       -0.24583307 0.09256818 -0.27968892 -0.26121944
0000b0 aa c1 a7 bd 8b 04 70 be 16 89 5a 3e f6 54 8f 3d
       -0.08191235 -0.23439233 0.21341357 0.06998627
0000c0 23 cc 34 be 22 da c5 3c 41 10 93 be 87 b9 5b 3e
       -0.17655997 0.024151865 -0.28723338 0.21457492
0000d0 79 37 16 3e 45 d7 b2 be ba 9b a8 bc a2 66 21 3e
       0.14669599 -0.34929863 -0.020582069 0.15761808
0000e0 34 0b 0a 3e b6 1d 84 3e f3 e2 4e be 73 dc 4f 3d
       0.13480836 0.25803918 -0.20203762 0.050747346
0000f0 0c df 73 be 83 cb ec 3d 0d f9 0f 3e 25 ec 7b be
       -0.23815554 0.11562254 0.14059849 -0.246018
000100 67 bd f2 bd a8 33 f7 bd d7 40 7a 3e d9 4d 63 bd
       -0.11852532 -0.120703995 0.24438797 -0.055494163
000110 17 9b 1a 3c 94 fe 7b bd c9 89 8f be cb d3 46 bd
       0.00943639 -0.06152208 -0.2803481 -0.048541825
000120 a7 03 8b 3e 26 7b 24 be c7 df 45 3e b1 78 5f 3e
       0.27151224 -0.16062602 0.19323646 0.21823384
000130 27 e2 5b 3e b3 0e 78 3e 72 1b e8 3d 2b ab 11 be
       0.21472989 0.24224357 0.1133336 -0.14225452
000140 48 b8 b5 bd 2f 63 06 3d 01 81 91 bd 57 85 b3 bd
       -0.088730395 0.032809433 -0.07104684 -0.08765667
000150 65 36 00 3e cf 72 de 3e c7 e7 9c 3e 39 41 5c 3d
       0.1252075 0.43446967 0.30645582 0.05377314
000160 0a ac 62 3e f5 99 8a 3e b8 51 90 3e 00 57 8b 3d
       0.2213594 0.27070585 0.28187346 0.06803703
000170 42 82 57 be d6 91 f1 bd 06 73 67 3e 0a b0 07 be
       -0.21045783 -0.11795394 0.22602472 -0.13250747
000180 16 cd 24 3e a1 f6 93 3e ff 61 af 3e 05 61 39 bd
       0.16093859 0.288991 0.34254453 -0.04525854
000190 62 fa 9d 3d 76 68 fe bd e5 d3 74 bc f1 87 53 be
       0.07713772 -0.12422268 -0.014943098 -0.20657326
0001a0 dc 8e e4 bd 29 9b 65 3e b9 6f 2b bd 39 1a 86 3e
       -0.11160061 0.2242247 -0.041854594 0.2619188
0001b0 1a c4 a6 3d bf c4 8f be b0 67 4d be 42 fb 58 3e
       0.08142872 -0.28079793 -0.20059085 0.21189597
0001c0 b6 c3 d4 bc eb a9 89 be ff e7 bd be 2f ae a8 be
       -0.025972228 -0.2688745 -0.3709106 -0.32945392
0001d0 b6 8e 89 3e e2 ad 7a be 0d 7b 5d bc 3f bd 17 be
       0.26866692 -0.24480394 -0.013518107 -0.14818285
0001e0 ce 06 17 bd c9 b9 42 bc 5b db 94 be 5f 4a 35 bd
       -0.036871724 -0.011885115 -0.29073605 -0.04426038
0001f0 da 6a 41 be ec cb 57 be 57 33 08 3e 07 f8 85 3d
       -0.18888417 -0.21073884 0.13300835 0.06541448
000200 02 62 d2 3b 13 95 c8 bc 0c 18 91 3e 2c 82 d0 3d
       0.006420375 -0.024485147 0.2833866 0.10181078
000210 79 b2 a0 ba 0e cd 10 3e b8 de 8d 3e b7 ac 90 bc
       -0.001226022 0.14140722 0.27708983 -0.017660482
000220 31 ee c5 3d b9 f1 a8 bc 5a c6 48 be 19 d5 3a be
       0.09664572 -0.020623075 -0.19606915 -0.18245353
000230 cf dc 71 bd b7 27 eb bd 3b 7a 48 bd c0 e0 6e 3e
       -0.05904847 -0.114821844 -0.048944693 0.23327923
000240 02 ed 2d 3e 73 a0 3a 3e db c4 35 be 15 d2 51 be
       0.16984943 0.18225269 -0.17750876 -0.20490296
000250 a0 ef 8c 3e 7a d3 03 be 7f 49 84 3e 9a da 15 be
       0.2752657 -0.1287364 0.25837323 -0.14634171
000260 ab b1 21 3e db 15 79 be d3 59 ee bd df 57 8b be
       0.15790431 -0.24324743 -0.11638226 -0.27215478
000270 0b 53 02 be 03 98 1e 3e d4 92 d1 3d fc 4c 2f be
       -0.12726991 0.15487675 0.10233083 -0.17119211
000280 39 3f 80 3e 0a 27 74 be 93 74 7b 3d 2d 2e 07 bd
       0.25048235 -0.23843017 0.06139047 -0.03300302
000290 07 88 18 3c a6 22 68 be 7a 8a 31 be bf 45 43 3e
       0.009309775 -0.22669467 -0.17337981 0.19069575
0002a0 bf 04 1c 3e ba 24 9f bd e6 c1 f8 bd 44 39 94 3e
       0.15236185 -0.07770677 -0.12146358 0.2894994
0002b0 1e ec 85 3e ad 64 5c bd 16 22 1c bd e6 92 66 3d
       0.26156706 -0.05380695 -0.038118444 0.056292437
0002c0 8b a1 e2 3d 81 e5 29 be 90 4d e7 3d 0f 75 f8 bd
       0.11065968 -0.16591455 0.11294091 -0.12131702
0002d0 e3 28 68 be b6 bd 89 bd 9d da b0 bd 1b 59 a7 3d
       -0.22671847 -0.067256376 -0.08635447 0.081712924
0002e0 16 eb 15 3e 9b 07 20 3d 57 3a 1c be e7 c3 6f be
       0.1464046 0.039069753 -0.1525663 -0.23414575
0002f0 cf 7c 39 be 5a 00 52 be e0 23 6a 3d 7a c7 ae 3d
       -0.18114017 -0.20507947 0.05716312 0.08534141
000300 fc 5c 46 be 9e d6 2f 3e 84 4e 96 3e 0a e5 55 bd
       -0.19371408 0.17171714 0.29356778 -0.05222038
000310 08 bf 80 3e 28 ce 3a 3e 84 a7 96 3c 65 78 0d 3e
       0.25145745 0.18242705 0.018390425 0.13815458
000320 25 d6 2a 3e 95 86 37 3c 58 67 da 3e 2a 4e 86 3e
       0.16683252 0.01120152 0.4265697 0.2623151
000330 37 3b 4f 3e 9f 54 73 bd 89 38 3c 3e 1e 8b 8b 3e
       0.20237432 -0.059406873 0.18380941 0.27254575
000340 04 58 a1 3e 77 ad 8b 3e a7 c8 3b bd c9 ec 97 3e
       0.31512463 0.2728078 -0.045845654 0.2967284
000350 cd c4 e2 3d d4 cb da 3d 98 f0 9b 3e 99 e5 69 3e
       0.11072693 0.106834084 0.30456996 0.22841491
000360 0e f3 45 3e 12 5b 13 3b dc f2 88 bd 7c 5a 99 3e
       0.19331 0.0022484702 -0.06686947 0.29951847
000370 72 cb 51 3e e2 fd 65 be 2a 67 35 3c e8 91 1b 3e
       0.20487764 -0.2246013 0.0110719595 0.15192378
000380 64 f5 ee bd e1 44 4f 3e 9a 3d c4 bd 25 aa 9f 3d
       -0.11667898 0.20241119 -0.09582062 0.07796124
000390 c2 9a 7c 3e 72 77 53 bb 23 4e 80 3e 7d d0 36 3d
       0.2466841 -0.003226724 0.25059614 0.044632424
0003a0 4b a7 10 be 58 a3 97 bd 20 f9 a7 3d 09 8c 89 3e
       -0.14126317 -0.07404202 0.08201814 0.2686465
0003b0 f0 dc 56 be b7 c2 63 bd f8 cd 34 3e 51 bf 74 bd
       -0.20982718 -0.055605616 0.17656696 -0.059752766
0003c0 7d 30 78 3e 09 53 2c bd 07 1a 90 be 58 73 dd be
       0.24237247 -0.042071376 -0.28144857 -0.43252063
0003d0 f4 3f e7 3c cb ec b7 bd 6d 27 b3 be 6c c4 88 be
       0.028228737 -0.089807115 -0.34991017 -0.26712358
0003e0 af 83 4a 3e 54 4c ba be ab 68 51 3e 22 26 ef bc
       0.19776796 -0.3638636 0.20450084 -0.029192988
0003f0 e2 85 03 3e fb 28 58 be 01 b0 6c 3d 5b f3 03 3d
       0.12844041 -0.21109383 0.057785038 0.032214504

conv1.weight f4 [32, 64, 3, 3]
000000 8c c8 62 3d 32 b5 0d bd b1 c1 bc bc 1b 5f 47 bb
       0.055367038 -0.03459663 -0.023041578 -0.0030421678
000010 00 77 0e bd 13 57 94 3c c0 0d 15 3c bd 46 c0 3d
       -0.034781456 0.018107926 0.009097517 0.09388492
000020 d2 0e f9 3c 79 cb 3c bb 3e 68 7a bc 7e 83 aa bb
       0.030402575 -0.0028807803 -0.015283642 -0.0052036634
000030 39 63 ec bd d6 c5 64 bc c3 2f 05 3d 2d 69 9a 3d
       -0.11542363 -0.013963183 0.032516252 0.07539592
000040 ef ed 8c 3d 05 be 9a 3c 51 a4 e2 3c 14 98 18 bd
       0.0688132 0.018889436 0.027666243 -0.037254408
000050 4b 50 05 bd 97 7f c5 3c 35 1e 25 bc 72 da c9 3d
       -0.032547276 0.024108691 -0.010078003 0.09856118
000060 de 21 a2 3d 53 8b 4d 3d c2 a2 06 bd 8e 66 90 bc
       0.07916616 0.050181698 -0.03287006 -0.017627027
000070 d8 69 cc 3b 91 0d 4c 3c a8 5c af 3d 10 26 88 3d
       0.0062382035 0.012454406 0.08562595 0.06647885
000080 ef f3 05 bd 1b 1c 80 bd 03 03 28 3b ad 8f cb 3c
       -0.032703336 -0.06255361 0.002563656 0.024848783
000090 ac 98 de bb 9f 9b f5 bb e4 1e ba 3c 92 30 5e bc
       -0.0067931022 -0.007495358 0.022719808 -0.013561385
0000a0 fd d8 6b 3c d3 7c 32 3c c9 85 ef 3c 09 f3 ba bc
       0.014394996 0.010894018 0.029238598 -0.022820966
0000b0 0f 85 65 3a e7 e1 54 bc 50 37 99 3d fb b1 f9 bc
       0.0008755484 -0.012993312 0.07481253 -0.030480376
0000c0 6b c9 90 bc a9 3e b0 bc 60 f0 a4 3c 59 59 41 bd
       -0.017674169 -0.021514254 0.020134151 -0.04720435
0000d0 8a 3c 92 bc d9 00 1b bd 19 a4 0f bd b9 87 2c bd
       -0.017851133 -0.037842605 -0.035068605 -0.042121623
0000e0 ff e3 19 bd 0e af e7 3c 04 db ac 3c b8 57 1d 3d
       -0.03757095 0.028281715 0.021100529 0.038413733
0000f0 37 2d 5d 3d 5e 7e 95 bc 12 19 97 bb 19 6a 3e 3c
       0.0539982 -0.018248733 -0.004611143 0.011621975
000100 77 dd 28 bc 12 1e 7f bc 38 5d 4b 3d 60 16 97 ba
       -0.010306708 -0.015571134 0.049649447 -0.0011527054
000110 c3 4f 78 bc 55 1e 54 3d a4 90 08 3d 59 0a 07 bd
       -0.015155735 0.05178674 0.033341065 -0.032968853
000120 05 65 81 3c 8b 34 32 bd 03 3c 6b bd 4c 41 87 bb
       0.01579524 -0.04350714 -0.05743028 -0.004127657
000130 74 37 9c bc b2 73 b5 3c 9e 1f 5e 3d 92 0f 1d bd
       -0.01906941 0.022149894 0.05422937 -0.038344927
000140 2d ab c7 bc 53 c6 2c 3d 03 bc 93 3a 5f 44 07 bd
       -0.024373615 0.042181324 0.0011271242 -0.033024188
000150 9b 8a d0 3b b8 29 a0 3b ec 7a 90 3c a4 42 37 bb
       0.0063641793 0.0048877858 0.017636739 -0.0027963305
000160 d9 6b 92 bc 29 64 9a 3d 27 a0 38 3d fe bc 99 bc
       -0.017873691 0.07538635 0.04507461 -0.018766876
000170 eb 0b 3c bd 0c 9c d3 3c 6b 9b d6 bc 21 8b 35 3d
       -0.045909803 0.025831245 -0.026197156 0.044322137
000180 5b 3e 10 3d f0 5c a1 bc 17 4c f4 bc f4 e3 2a 3d
       0.035215717 -0.019697636 -0.029821439 0.0417213
000190 f3 48 5d 3d 30 a7 b8 3b 64 f5 10 3d 6f 41 a9 bd
       0.054024648 0.0056351647 0.035390273 -0.082644336
0001a0 1c 77 ad 3c 32 9c ab ba 6d a4 54 bd 47 60 81 3c
       0.02117496 -0.0013092814 -0.05191462 0.015792979
0001b0 60 33 63 3b 53 6e 95 bd f4 40 80 3c 88 cf 9c bd
       0.0034668073 -0.07296433 0.015655972 -0.07656771
0001c0 20 39 2a bd 20 1d 50 3a d2 8b 1d bc dd 62 33 bc
       -0.041558385 0.000793891 -0.009615855 -0.010948864
0001d0 93 88 8c bd cf 54 f4 bd a5 8d 93 bc f2 0a fa bc
       -0.06861987 -0.119302385 -0.018011877 -0.030522797
0001e0 14 4d 1e bc db db 8e bb c6 31 86 bd 50 99 46 bc
       -0.009661932 -0.004359705 -0.06552462 -0.0121215135
0001f0 fd 6c 6c bc 8c e0 88 3c d2 f4 3c bd dc 1a 88 bd
       -0.014430282 0.016708635 -0.046131916 -0.06645748
000200 21 4e 97 ba f1 63 70 bd 8c c4 fe bc 04 b7 b8 3d
       -0.001154367 -0.05868906 -0.03109958 0.090192825
000210 8a 74 b7 3c 9f 0d b2 3d 1e 47 cd bc f4 91 72 3c
       0.022394437 0.08694004 -0.025058325 0.014805306
000220 8d 59 56 3c 01 e9 6e 3d 21 66 48 3d 83 e0 03 bd
       0.013082874 0.05832768 0.048925523 -0.032196533
000230 01 a0 8c 3d 2e e0 51 3d 2f 82 13 bd 3a 83 df bc
       0.06866456 0.051239185 -0.036012825 -0.027284253
000240 92 b5 a9 3c 8c 1a 1d 3b cc 42 4e 3c dc f6 b3 3d
       0.020716462 0.0023972122 0.012589168 0.08787319
000250 1e d3 63 3d 7d 86 16 3c 62 c6 f8 3c a8 6c 43 3c
       0.05562126 0.009187338 0.030368034 0.011927761
000260 20 97 67 3d 5b 5a 30 3d 11 3c e6 bc 42 61 ac 3c
       0.05654061 0.04305492 -0.028104814 0.02104247
000270 55 c3 7f 3d 56 26 15 bd 18 68 1a 3d b4 c9 97 3c
       0.062442143 -0.036413513 0.037696928 0.018528797
000280 45 f3 3b bd a7 e9 7a 3d c6 b7 2c bd 78 08 5d bd
       -0.045886297 0.061257984 -0.042167448 -0.053963155
000290 cc 83 b3 bb 2d 06 ef 3c 21 7b 17 bd a5 de 95 3c
       -0.005478358 0.02917775 -0.03698266 0.018294642
0002a0 a9 ba 1d bd 11 9f 69 3d 78 cc d4 bc a7 09 99 ba
       -0.03850809 0.057036463 -0.025976405 -0.001167585
0002b0 30 49 07 bd 8e 8c 13 3c 79 21 01 3d f4 17 66 bc
       -0.03302878 0.009005679 0.031526063 -0.014043797
0002c0 55 82 18 bd 36 91 87 3c ac b7 d5 bc 5c 29 48 bd
       -0.03723367 0.016548734 -0.026088558 -0.04886757
0002d0 c9 e4 be bb 52 55 e3 bc 37 93 f0 3c b8 27 d0 bd
       -0.005825613 -0.027750645 0.029367073 -0.10163826
0002e0 b6 e3 30 3d 38 61 b8 3c 70 a5 73 3c e1 fd 76 bb
       0.043185912 0.022507295 0.014870986 -0.0037687945
0002f0 ba e7 ec bc 55 b5 46 3d 4c 34 42 3d 20 e1 49 3c
       -0.02891909 0.048512775 0.047413155 0.01232174
000300 31 7a 6e 3d 0e 62 6b 3d b5 04 94 3c 84 8d 5f 3d
       0.058222 0.05746656 0.01806865 0.05457832
000310 53 88 33 3d 77 db 03 bd 90 84 b1 bd 4c 79 f4 3c
       0.04383118 -0.03219172 -0.086678624 0.029842995
000320 ee 7e e7 bb 30 31 0b 3d fb de cf 3b 1b 24 40 3d
       -0.0070646917 0.033982456 0.00634372 0.046909433
000330 65 da 28 bc eb 43 90 3b 3a 3c 85 bb aa ae 1a bd
       -0.010305976 0.0044026277 -0.0040660175 -0.03776423
000340 17 d7 44 3d 44 63 33 3c 86 db 2c bd bb 9e 16 3d
       0.04805669 0.01094896 -0.04220154 0.03677247
000350 a3 d1 27 bd 31 9e 21 bd 0f 47 0b bc f2 6c a4 3b
       -0.04097141 -0.039457504 -0.008500828 0.00501787
000360 e0 c9 86 3c 3e 30 b2 3d 54 af a7 3c 23 88 c5 bc
       0.016453683 0.08700608 0.020469345 -0.024112767
000370 8d 20 79 3d 23 55 6d bc ed 33 41 bd d8 94 e9 bb
       0.06082206 -0.01448563 -0.04716866 -0.0071283393
000380 b8 88 9a 3c 8e 9a 1a bb 48 0e 53 bb 9b c3 b2 bc
       0.01886402 -0.0023590657 -0.0032204557 -0.021821788
000390 6c ac 88 bc 8c 09 26 3d 0e 05 6b bc 6d 30 20 bc
       -0.01668378 0.04053645 -0.014344467 -0.009777171
0003a0 4f 23 56 bd 89 47 20 bd 09 21 06 3c 94 2a 2c bd
       -0.052279767 -0.03913072 0.008186587 -0.042032793
0003b0 2d f7 49 3d 0c 1a a0 bb 70 0f 6d bd 6e 16 92 3c
       0.04930799 -0.0048859175 -0.05787605 0.017832961
0003c0 69 b3 a7 bc 43 b7 dc 3c 16 2a 8f 3d 59 f6 52 3d
       -0.020471292 0.026942855 0.06990449 0.051504467
0003d0 3f b8 01 3d f7 f3 77 bc 19 c6 3c bd bf ca 1b 3c
       0.03166985 -0.015133849 -0.04608736 0.009508788
0003e0 84 c6 30 3d a3 70 df 3c 89 c1 de 3b 1d 08 2d 3d
       0.04315807 0.027275389 0.0067979735 0.042244066
0003f0 b9 93 4f 3c 6b 1f b5 bc 14 f8 3e 3c e5 43 2c bc
       0.012669497 -0.022109708 0.011655826 -0.010514234

conv1.bias f4 [32]
000000 39 21 ba 3b e8 83 b1 3c 6b c2 5b bd 98 7c 49 bd
       0.00568023 0.021669343 -0.05365221 -0.049191087
000010 b3 2f a5 3c b3 2c 71 3c df b6 13 bb 18 25 aa 3c
       0.020164346 0.01472013 -0.002253942 0.02076964
000020 0b a9 25 bd de 36 e4 bc e1 0f 4f bc e4 69 37 bd
       -0.040444415 -0.027858194 -0.012638063 -0.04477872
000030 c2 1e 7b bc ee cb 3b 3c e6 77 8c bd 65 2a de bb
       -0.015327157 0.011462195 -0.06858806 -0.006779956
000040 31 fb 04 bd b3 55 75 bd 9a 8e 5d bd 6c 3d 24 bd
       -0.032466117 -0.059896182 -0.054091074 -0.04009764
000050 c9 8c 5b bd 18 75 4c 3c 41 39 79 bd 86 06 50 3c
       -0.05360106 0.012479089 -0.060845617 0.012696868
000060 69 30 ae bc ec b2 c8 bb e6 d8 57 bc 5e 89 f3 3c
       -0.021263318 -0.006124845 -0.013174271 0.029728588
000070 1a 11 4d bc 8f 4e e3 bb c4 46 80 3c 4b ed 05 bb
       -0.012516284 -0.006936855 0.015658744 -0.0020435627

conv2.weight f4 [16, 32, 3, 3]
000000 ee 75 de bb 41 55 c2 3b 4f a8 6a bc e4 5e 33 3d
       -0.0067889607 0.005930573 -0.014322354 0.043791667
000010 02 c6 20 3d fe e0 eb 3b 9e d1 7d 3d f1 7d 53 bd
       0.039251335 0.007198452 0.061967485 -0.05163378
000020 10 c9 1e 3c 65 1b c5 bc 42 b8 95 3c 61 c2 d4 3d
       0.009691492 -0.024060914 0.018276338 0.10388637
000030 e5 62 ed bc 3a 46 4c 3d 34 3c 9f bc f2 f5 21 3d
       -0.02897782 0.04987166 -0.019437887 0.039541192
000040 23 6f 92 bd c1 c9 a5 bd fe d2 00 bd c4 60 94 3d
       -0.07150104 -0.08095122 -0.031451218 0.07245019
000050 45 b5 8a bd e8 98 71 bc f1 c6 6d 3d 5e 95 1a 3c
       -0.06772856 -0.014745928 0.058051053 0.009435026
000060 fc 1b 35 3d 7b ac 5d bc 58 cc 58 bc 24 8b 4e 3d
       0.04421614 -0.013529892 -0.013232313 0.050425664
000070 b7 84 90 3d 2a 3f 14 3d 43 40 8d bb b8 0a 6f 3d
       0.07056563 0.03619305 -0.004310639 0.05835983
000080 a9 a3 a0 3c b6 df 5b 3b 8c e4 96 3c 50 c6 32 3d
       0.01960929 0.003355009 0.018419527 0.043646157
000090 c2 f7 6c bc d5 0d 07 bc 63 09 be bc 91 a2 02 bd
       -0.014463367 -0.008243044 -0.023197835 -0.031893317
0000a0 4d 5d da bd 58 c7 8c bd 4a f8 6d 3d 43 ad 35 bd
       -0.10662327 -0.06873959 0.058098115 -0.04435469
0000b0 af b3 08 3d 23 d7 da 3c a3 72 ef bc 8e 3c 87 bd
       0.033374485 0.026713913 -0.029229468 -0.06603347
0000c0 67 31 9c bd f4 89 86 3c ac 03 8f bb c8 3f 39 bd
       -0.0762661 0.016423203 -0.0043644514 -0.045226842
0000d0 17 11 47 3d da c6 91 3d 03 5e cc bc bc 7f 37 bd
       0.048600283 0.07118006 -0.024947172 -0.04479955
0000e0 8f e8 cb bc d3 ed 93 3d 06 35 de bc f7 c5 09 3c
       -0.024891166 0.07223096 -0.027124893 0.008409015
0000f0 3f 47 21 3d c6 4f 83 3d 59 cf 12 bd 47 6e 2d 3d
       0.039374586 0.064117 -0.035842273 0.042341497
000100 81 4c 62 3d 58 bb 32 3d 6b 9a 8a 3d 8d cd 79 bd
       0.05524874 0.043635696 0.06767734 -0.060987044
000110 81 2a 3f 3d 48 6d b1 3c 24 47 32 3c 27 21 dc 3c
       0.046671394 0.021658555 0.010881219 0.026871277
000120 dc 35 00 3c f9 b8 d3 bd 2e 86 2e 3e 17 43 af bd
       0.007825341 -0.10338015 0.17043373 -0.08557718
000130 6a 6c a8 3d dc c2 75 3c 44 83 96 3d 0c 6e 1d 3d
       0.08223803 0.015000071 0.07349256 0.038435027
000140 52 75 fb bc 0e 50 4f bc e4 10 8b 3d a5 31 fb bc
       -0.030695591 -0.012653364 0.06790331 -0.03066332
000150 e4 18 65 3d f3 43 86 3d 98 fb af 3c 48 f7 68 3d
       0.05593194 0.06555929 0.021482274 0.05687645
000160 05 47 4a 3b 9b 14 28 3d d3 e3 8d 3d 1b 3c 74 bc
       0.0030865085 0.041035276 0.0692822 -0.014906908
000170 c0 51 12 bd a8 00 9d bd 39 6d 66 3d 98 98 b4 3b
       -0.035722494 -0.07666141 0.056256507 0.0055113547
000180 0f 19 80 3d e7 e1 82 bd 14 2c 73 3c c6 92 ad 3d
       0.062547795 -0.06390744 0.014842052 0.084752604
000190 84 b5 63 3d d9 c4 f8 3b 4e 8c c4 3c 1c 6b f4 bd
       0.05559303 0.0075918254 0.023992684 -0.11934492
0001a0 c1 29 87 bd 92 48 a2 bb 9e 4b 52 bc 73 9a 29 bd
       -0.06599761 -0.0049524987 -0.012835411 -0.04140706
0001b0 ab b3 3d 3d f6 50 61 3c 8c 59 8f bc 43 6b 71 3c
       0.046313923 0.013752213 -0.017498754 0.014735046
0001c0 f5 4a 17 3c cd b4 04 be e4 30 9b bd f2 33 d9 3c
       0.00923418 -0.12959595 -0.075776845 0.026514027
0001d0 c9 68 66 3d 55 19 13 bd c9 e3 e7 3b e5 15 a0 3d
       0.056252275 -0.03591283 0.0070767147 0.07816676
0001e0 52 7f 25 bd 01 e8 16 bd 29 4e 23 3b cf 2c 94 bc
       -0.040404625 -0.03684235 0.0024918413 -0.018087773
0001f0 1a 3c 29 bc 1c 70 1e 3c 26 a1 0c 3d 73 1a ef 3d
       -0.010329271 0.009670284 0.03433337 0.11674967
000200 10 2f 94 bd 86 28 4d bc 58 94 9b 3d 95 f8 a7 3a
       -0.07235539 -0.012521869 0.07596654 0.0012815172
000210 4c ed 9d bd 7f 2c 99 bc 09 88 84 3d 6e a7 6c 3d
       -0.077112764 -0.018697975 0.06471259 0.05777686
000220 ad 5f 5f bc 0f fa 10 3d d0 26 50 bc 1c e6 bd 3c
       -0.013633651 0.035394724 -0.012704566 0.023181014
000230 45 21 86 3d 11 66 f3 bb c8 bc d6 3c 7a 5d 13 3d
       0.065493144 -0.0074279387 0.026213065 0.035977818
000240 4e 46 72 3c 21 89 87 bc 45 ab 6e bc 80 94 b7 bc
       0.01478727 -0.01654488 -0.014567201 -0.022409678
000250 29 23 ac bc 83 80 01 3c 29 7b a0 bc 9a 77 60 3d
       -0.02101286 0.007904175 -0.019589977 0.05480156
000260 28 6f 0b 3b e5 35 ea 3d 21 92 9e bc 0f 08 14 bd
       0.002127597 0.11436061 -0.019356789 -0.036140498
000270 f8 52 6a bd 8f ff a8 3d c4 be ae 3c dc a0 61 bd
       -0.05720803 0.08251869 0.021331199 -0.055085048
000280 16 6e 08 3c 9f e2 75 bc 93 b8 83 3c 7e a9 5a 3d
       0.008327028 -0.015007644 0.016079223 0.053384297
000290 8b f4 1d 3d cb 54 85 3c 14 14 03 3d b2 d0 7e 3d
       0.038563292 0.016275784 0.03200157 0.062210746
0002a0 84 9a 4b bd a4 d5 62 3a a7 97 7e bd 89 ff c5 3d
       -0.049707904 0.0008653051 -0.062156346 0.0966788
0002b0 ee 4c 27 bd f3 17 52 3d 73 5d ec 3c eb e2 ee 3a
       -0.04084485 0.05129237 0.028853154 0.0018225586
0002c0 8c 0a 0f bc fb c2 c1 bd 3f 03 7d 3b 6c 4a 1d 3d
       -0.008730542 -0.09461018 0.003860667 0.038401052
0002d0 45 47 0d bd d9 23 65 bd 5f 47 4c bd af 42 36 bc
       -0.034491796 -0.05594239 -0.049872752 -0.011124297
0002e0 bf 3b 1f 3d 76 20 9e 3d b8 40 9a 3d 56 a5 b5 bb
       0.038875338 0.07721035 0.07531875 -0.005543391
0002f0 00 f2 bc bc 96 fb e3 3c 79 29 60 bd 6f 8d 1f bd
       -0.023064613 0.027829926 -0.05472705 -0.03895324
000300 24 9e 69 bd 27 79 4f 3d 25 f4 8d 3d b4 f9 9d 3c
       -0.05703558 0.05065265 0.069313325 0.019284107
000310 88 a6 b1 bb da af 1d bc ae 8e da bb 14 db 1b 3d
       -0.0054214634 -0.009624446 -0.006669841 0.038050726
000320 bf 69 36 3a e6 5c 9e 3b 53 35 fd 3a 49 60 9f bc
       0.00069585064 0.0048328517 0.001931826 -0.019455092
000330 d2 91 f2 bc d6 a3 6e bc 4e 89 fa bc bf ca 86 3c
       -0.029610548 -0.014565429 -0.03058305 0.016454099
000340 49 3e 35 bd e2 0b 68 3d 12 6f ef bc df 39 9f 3d
       -0.044248853 0.056651957 -0.029227767 0.0777471
000350 27 a4 10 3c af be f7 bc 0d 25 8a 3d 91 94 95 3d
       0.0088281995 -0.030242292 0.06745348 0.073037274
000360 c9 83 72 3d 02 e9 65 3d 4e 09 15 3b 84 1c 01 3d
       0.05920771 0.056130417 0.0022741142 0.031521335
000370 1c dc 3d 3d 1b 50 5a bb ee a2 5f 3c 25 f1 2a bd
       0.04635249 -0.0033311907 0.013649685 -0.04173388
000380 7d 7d 59 bd 09 c7 0a bd 9c a6 30 bd 4d e3 51 3c
       -0.05309819 -0.03388122 -0.04312764 0.01281054
000390 54 35 f4 3c 22 f0 84 3d 99 4b 41 3d 0c 89 a1 bd
       0.029810585 0.06491114 0.047191236 -0.07887468
0003a0 a0 48 cb 3c 15 9c 68 3d cf 23 19 3d d2 e3 0c 3c
       0.024814904 0.056789476 0.037387665 0.0085992385
0003b0 43 50 92 bd b8 98 52 3d 7d 04 8b 3c a4 6a 61 3d
       -0.07144215 0.051415175 0.016969914 0.05503334
0003c0 60 99 34 bd 8b fd 63 bd 44 1f 54 3d 89 05 87 bd
       -0.044091582 -0.05566172 0.05178763 -0.065928526
0003d0 37 56 b9 3a 37 f0 d5 bc f5 a5 15 3c cd f5 6f 3d
       0.0014140074 -0.02611552 0.0091338055 0.058584023
0003e0 d5 1c a6 bb 2a d7 66 3d 23 10 4d bd 3f 06 e0 3c
       -0.005069355 0.05635754 -0.050064217 0.027346728
0003f0 3c 11 71 bd f1 67 04 3d ee 21 8e 3c 39 df dc 3b
       -0.058854327 0.03232569 0.017350163 0.0067404774

conv2.bias f4 [16]
000000 dd c6 5e 3d 80 3a a4 bc 9b 44 05 bd 8b 62 d1 3a
       0.05438887 -0.020047426 -0.03253613 0.0015974803
000010 a7 b8 8d 3c be 35 d5 3c 61 2f 3d 3b 68 64 ed bc
       0.017299963 0.026026603 0.0028867351 -0.028978541
000020 b9 d0 08 bc e5 f6 8c bb 20 c2 50 bd c2 05 00 bd
       -0.008350545 -0.004301893 -0.050966382 -0.03125549
000030 e4 53 17 3d c7 84 bc bd ab 4d af 3c f2 13 da bc
       0.03694524 -0.09205013 0.02139934 -0.026620839

fc2.weight f4 [3, 256]
000000 35 37 96 bc 31 f2 8a 3d b0 3f 46 bd 49 de a2 3d
       -0.018336872 0.067844756 -0.04840058 0.07952554
000010 9d d8 bb bb 30 43 c9 3c 2a 0d 94 bd 1d cd ae 3d
       -0.0057326094 0.02456817 -0.07229073 0.08535216
000020 cd 54 1f bd 63 9b 93 bd 3d 9a 97 3d 97 0b 91 bd
       -0.03889923 -0.07207372 0.074024655 -0.07082289
000030 b9 cf 85 3c 30 46 88 3d 14 47 49 3d d6 ba 2a 3b
       0.016334401 0.06654012 0.04914005 0.0026051304
000040 2c a5 09 bc 7b f3 a1 3d 74 22 8b 3d e6 0a 81 3d
       -0.008401196 0.07907768 0.06793681 0.06300907
000050 bc 6c 92 bd 17 6f 1d bc 54 8e 90 bb a1 72 f4 bc
       -0.07149646 -0.009609005 -0.004411498 -0.029839816
000060 ca 8a 5f 3d 7f bd 28 3d e5 03 57 3c 41 85 79 3d
       0.05457572 0.041196343 0.013123487 0.060918096
000070 73 1c e5 bd f2 b7 31 3d a7 64 1a 3e 70 95 11 bd
       -0.11187067 0.043388315 0.15077458 -0.035542905
000080 99 f8 17 3d 5f ba 9b 3d a2 31 58 bd df 98 58 bd
       0.037102316 0.07603907 -0.05278171 -0.052880164
000090 b0 f3 9c 3d c1 a2 8c 3d e5 cc 1e bd 9c fb a7 3d
       0.07663667 0.0686698 -0.03876962 0.082022876
0000a0 6a 46 48 3b 33 50 36 3d f0 10 1a bd a0 10 81 bc
       0.0030559548 0.044510078 -0.03761381 -0.015754998
0000b0 b2 63 60 3d e8 15 00 3d 6e e3 42 3d 95 91 d1 3b
       0.054782577 0.03127089 0.047580175 0.0063955286
0000c0 45 67 58 3d 1c 2a 38 bd 7d 9d 88 3d b1 25 a8 bc
       0.05283286 -0.044962034 0.066706635 -0.020525785
0000d0 54 77 fb bc 8a ad 3f bd 89 dd 85 3d 92 7f 64 bd
       -0.030696549 -0.04679636 0.06536395 -0.055785723
0000e0 88 74 82 bd 7c 4a 55 3a db 47 45 3d 26 ce be bc
       -0.06369883 0.0008136404 0.04816423 -0.023291659
0000f0 75 75 d1 bd 93 5e ab bc 58 ba 9f 3d fb ad 1c 3d
       -0.10227481 -0.02091912 0.07799214 0.03825186
000100 8d 91 9a bd ab 9c 94 3d e0 b4 88 bd 0b 17 58 bc
       -0.07547293 0.072564445 -0.06675124 -0.013189088
000110 4d 20 ac 3c bc 5c 0b bd f1 f8 82 bd 95 e5 80 bd
       0.021011496 -0.034023985 -0.06395138 -0.06293789
000120 a6 78 43 3d 04 5b 80 3d bd ea 8a 3d 2a f8 d3 3d
       0.04772248 0.0626736 0.06783054 0.10350068
000130 5d 09 3c bc 3a 1b 47 3b 1e da 4f bd fc 20 e8 bc
       -0.011476842 0.0030381219 -0.050745122 -0.02833604
000140 e3 3f 32 bd 38 4d 8d 3a 4f ca 89 3d 1e d5 49 bd
       -0.04351796 0.0010780459 0.067280404 -0.04927551
000150 9e ad 99 bd 6f 12 34 3d 32 23 af 3d 2d 42 0a bd
       -0.07503818 0.043962892 0.08551635 -0.033754516
000160 b7 00 5c bd bc d9 14 bd 20 59 58 3c dc 1b 97 3d
       -0.05371162 -0.03634046 0.013204843 0.07378361
000170 ca 99 ad bc e2 65 72 bc 05 73 b2 3d 4b af 49 bd
       -0.021191496 -0.014794799 0.087133445 -0.049239438
000180 03 51 ea 3b ef e1 51 bd 3e 03 c3 3d a4 f7 6b bd
       0.0071507706 -0.051240858 0.09522103 -0.057609215
000190 e0 50 a9 bd 82 b7 80 bd 87 62 56 3b ca e1 04 3d
       -0.08267379 -0.06285001 0.0032712535 0.03244189
0001a0 37 df 17 3c f2 01 8f 3d ab e5 30 3c 71 51 3e 3d
       0.009269527 0.06982793 0.010796945 0.046464387
0001b0 ae ef cd 3d 45 8a 85 bc 9e c7 bc bc d3 42 5a bb
       0.10055481 -0.016301284 -0.023044404 -0.003330399
0001c0 1d f3 ea bc e9 bd 0e bd c1 d8 a0 3d 7e 99 91 3d
       -0.028680379 -0.03484908 0.078538425 0.071093544
0001d0 12 8d d2 bc 4d ca 99 bd 18 2a fc 3c 7e 6c 2c 3c
       -0.025702033 -0.07509289 0.03078179 0.010523913
0001e0 12 dc 99 3d 4a c3 45 bc e2 75 1f bd 9d a8 be 3d
       0.07512678 -0.012070486 -0.03893078 0.09309504
0001f0 47 ba bf 3d 81 c1 55 bd 86 ac 8f bc d3 be 8f 3c
       0.093617015 -0.052186493 -0.01753832 0.017547047
000200 1f 67 7a 3c 89 44 0b 3c 89 36 83 bd 5a e1 84 3d
       0.015283375 0.008500227 -0.06406886 0.06488295
000210 6a d5 9a 3d b4 4b 8b bd ee 73 3f bc 67 25 e1 bb
       0.07560237 -0.068015486 -0.011685355 -0.006870914
000220 dc ec 66 bd 32 3a 04 3c 4c 75 02 3d 76 ca a1 3d
       -0.05637823 0.0080705155 0.031850144 0.078999445
000230 b9 87 a1 bd fc d9 af 3d 54 7e 4a 3d 3b 64 0b bd
       -0.07887215 0.08586499 0.049436882 -0.034031134
000240 98 e6 90 3d 74 83 68 3d 33 bd aa 3c cc 37 e8 3c
       0.07075232 0.05676599 0.02084217 0.028346919
000250 fc 5e 1d 3d 89 28 b3 3c 73 e8 2e bb 30 91 af 3d
       0.038420662 0.021869915 -0.0026688843 0.08572614
000260 11 d8 3e bd 99 84 68 bd 4e c7 e1 bc 20 4a a9 bc
       -0.046592776 -0.05676708 -0.027560856 -0.020665228
000270 2f 17 68 bd 46 52 42 bd 44 a6 01 bd e2 1d 2e 3e
       -0.056662735 -0.047441743 -0.031652704 0.17003587
000280 5e c1 74 3d 60 f7 5b 3d 0c c6 e8 3b 77 aa 22 3d
       0.05975472 0.053702712 0.007103687 0.03971335
000290 c5 da c6 3c e3 44 35 3d 68 e9 ac 3d 6e 60 62 bd
       0.02427424 0.04425515 0.08442956 -0.055267744
0002a0 13 16 b3 3d d6 ff 10 3d d4 60 31 bd e6 1d 9d 3c
       0.08744445 0.035400234 -0.043305233 0.019179296
0002b0 5b db 5d bd 8f cf 87 bc 60 20 64 3d f9 39 1a bb
       -0.05416427 -0.016578464 0.055694938 -0.002353309
0002c0 03 02 1d bd 7d 12 ae 3d 5a b1 34 3d dc 8c 98 bd
       -0.038331997 0.0849962 0.044114448 -0.07448742
0002d0 ee f0 6e bd 60 82 56 3c 1c 2c df bb 59 5d 0b bc
       -0.058335237 0.013092607 -0.006810678 -0.0085061425
0002e0 05 d8 1d bd 06 d8 45 3d cb d4 a1 3d 20 52 92 3d
       -0.03853609 0.04830172 0.07901915 0.0714457
0002f0 1f 72 81 bd 73 0c 50 bc b5 30 ce 3b 0a 79 9a 3d
       -0.06320595 -0.012698281 0.0062924274 0.075426176
000300 22 b0 4f 3c e4 bf fd bc d0 51 ff bc 27 34 b7 3d
       0.012676271 -0.03097529 -0.03116694 0.08945494
000310 d6 33 45 3c b6 9f 23 3d c4 16 89 bd f5 b0 36 3d
       0.012036284 0.039947234 -0.06693795 0.044602353
000320 d8 ec ec bc 7d 0f 77 3d 45 30 41 bd 54 11 cc bb
       -0.02892153 0.060317505 -0.047165174 -0.0062276516
000330 1f 39 18 bc 9a d9 10 3d e7 dd 2b 3c 45 2a 79 3d
       -0.0092909625 0.03536377 0.010489917 0.060831327
000340 f4 d1 89 3d 12 5d f4 bc 36 83 9b 3c c4 dd d2 3d
       0.067294985 -0.029829536 0.018983465 0.10296205
000350 ed b9 7c 3c bf 34 a8 bd 32 3f f3 3d 29 c0 79 3d
       0.015425188 -0.082131855 0.11877288 0.060974274
000360 ee 77 15 3c bb f5 b9 3d b0 66 a8 bc 08 62 30 bd
       0.009122832 0.090800725 -0.020556778 -0.04306224
000370 d2 e0 e7 3c 20 02 0d 3d fa a9 9a bd 12 e8 1d 3d
       0.028305445 0.034425855 -0.07551952 0.038551398
000380 7a 28 99 3d 8b 51 0b 3d f0 7e ac 3a 36 85 34 3d
       0.074784234 0.034013312 0.0013160389 0.044072352
000390 8f 76 46 3d 87 99 ee bc 9d a4 4b 3d 36 94 6d 3a
       0.04845291 -0.029125942 0.049717534 0.00090629177
0003a0 ab d1 43 3d 1b 89 54 bd d0 b8 42 3d 9f bc 81 3d
       0.047807377 -0.051888566 0.047539532 0.06334805
0003b0 77 05 91 3d fa 29 82 bd 6c 7e 6b bd 20 99 b7 bc
       0.070811205 -0.06355663 -0.057493612 -0.022411883
0003c0 98 e9 ac 3c 8a 6f c9 3c cd 81 46 3c 59 3e 15 3d
       0.02110748 0.024589319 0.012115908 0.036436412
0003d0 88 09 37 bd 79 c2 60 bc 82 26 3c 3c 56 ec 37 bd
       -0.044686824 -0.013718241 0.01148379 -0.044903122
0003e0 24 ec 4a 3d f4 0a e0 bb 15 1b 87 3c 9e ee bb bb
       0.049541607 -0.006837243 0.016492406 -0.0057352325
0003f0 e4 b3 02 bd 29 35 12 bd 5f 90 8b bd f6 70 9d bd
       -0.03190984 -0.03569523 -0.06814646 -0.07687561

fc2.bias f4 [3]
000000 dc ec 9e 3c 70 93 40 3c f4 dc 36 3c
       0.019400053 0.011753902 0.011161078
